src/model/weights/e_net_a_weights.pt (torch, 10551 bytes, 7 tensors)

weight f4 [8, 2]
2.1561248 0.6140987 -0.5854204 0.80569464 -0.03182022 -0.073120266 -1.6239341 -2.2785351
0.29054606 -1.2714396 -1.6685034 1.3445185 -0.016984403 1.0143201 0.79913235 -0.27902037
00000000: f3fd 0940 9335 1d3f 1dde 15bf 0142 4e3f
00000010: eb55 02bd 14c0 95bd 13dd cfbf 85d3 11c0
00000020: 74c2 943e 88be a2bf 8591 d5bf 2f19 ac3f
00000030: e022 8bbc 3ed5 813f f093 4c3f c2db 8ebe

weight f4 [1, 2]
-0.47022697 0.1081843
00000000: 97c1 f0be bb8f dd3d

weight f4 [8, 7]
0.3415103 -0.20543367 0.3032094 0.040861133 0.1836047 -0.013801867 0.06342755 0.05837785
-0.10599157 0.030849362 0.0114103835 0.21839482 0.2743834 0.14715238 -0.10941765 0.06102706
0.0044777524 -0.24683657 0.25822082 0.15817879 0.1848968 0.2703033 -0.21926942 -0.20247713
0.21558124 0.0459545 0.20134246 0.35841578 -0.11948268 0.3016584 0.0010914127 0.13923836
-0.026107486 0.20365176 0.30324042 -0.030990524 -0.099859916 0.36886933 0.03609083 0.28226066
0.17111596 0.29061294 0.18990667 -0.060797136 -0.24417141 -0.1885573 -0.06692243 -0.26372904
0.3766932 -0.112977006 -0.21799526 0.14135388 -0.08292723 -0.03284457 -0.2289302 -0.09592645
00000000: 70da ae3e 345d 52be 433e 9b3e 015e 273d
00000010: df02 3c3e 3a21 62bc 4ee6 813d 9d1d 6f3d
00000020: 1c12 d9bd cdb7 fc3c 9ef2 3a3c e4a2 5f3e
00000030: fb7b 8c3e 1daf 163e 5c16 e0bd 83f7 793d
00000040: 1cba 923b bac2 7cbe 8535 843e 9ff9 213e
00000050: 9655 3d3e 3265 8a3e 2a88 60be 2a56 4fbe
00000060: 54c1 5c3e c93a 3c3d b82c 4e3e 4682 b73e
00000070: 56b3 f4bd f872 9a3e bc0d 8f3a 8094 0e3e
00000080: 5edf d5bc 168a 503e 5442 9b3e d7df fdbc
00000090: 5b83 ccbd 71dc bc3e fad3 133d 7884 903e
000000a0: 0639 2f3e 38cb 943e e576 423e 6b06 79bd
000000b0: 1208 7abe 2a15 41be a10e 89bd 7e07 87be
000000c0: eedd c03e 7d60 e7bd 263a 5fbe 12bf 103e
000000d0: c0d5 a9bd 0788 06bd ae6c 6abe 1675 c4bd

bias f4 [8]
-0.29949987 0.22726125 -0.01581316 0.05935536 -0.022033218 -0.09105598 -0.3476029 0.25713345
00000000: 0c58 99be 2cb7 683e 9a8a 81bc 9b1e 733d
00000010: 027f b4bc 8f7b babd 02f9 b1be ffa6 833e

weight f4 [8, 8]
0.2269768 0.097616106 0.12511557 0.20624349 0.1005789 0.17561652 -0.0751182 0.18394533
-0.15884228 -0.1373167 0.25897557 -0.1175358 -0.2858624 0.029596698 -0.007580701 0.06733161
0.06872355 -0.07937528 0.2985293 0.18779425 -0.30730104 -0.07978495 -0.14569293 -0.2699387
0.10043851 -0.10814961 0.16858314 0.25615686 -0.32023364 -0.25641376 -0.020709487 -0.079574004
-0.040051643 -0.33687693 -0.14548291 -0.2671807 0.26466966 -0.20983411 0.076998204 -0.097689815
-0.16465564 -0.058959942 -0.19702686 -0.0021922684 -0.0073513375 -0.13943362 -0.09256097 -0.08456415
0.05663786 -0.08105049 0.06820751 0.028887197 0.28428167 0.31175396 0.25476894 -0.050870277
-0.29651162 -0.12755705 -0.11675221 0.2723847 -0.18816906 0.074275814 -0.10830745 0.17438161
00000000: 9b6c 683e f4ea c73d 4c1e 003e 7e31 533e
00000010: 4ffc cd3d d1d4 333e 92d7 99bd 2a5c 3c3e
00000020: 8da7 22be c09c 0cbe 7298 843e 9cb6 f0bd
00000030: 8e5c 92be c674 f23c 8767 f8bb 28e5 893d
00000040: efbe 8c3d 828f a2bd d5d8 983e 234d 403e
00000050: 9056 9dbe 4b66 a3bd 8730 15be 6835 8abe
00000060: b5b2 cd3d 8b7d ddbd 0fa1 2c3e fe26 833e
00000070: aaf5 a3be aa48 83be f1a6 a9bc b2f7 a2bd
00000080: 310d 24bd 227b acbe 79f9 14be e9cb 88be
00000090: c882 873e c1de 56be 3cb1 9d3d 9911 c8bd
000000a0: 7d9b 28be fb7f 71bd 69c1 49be 29ac 0fbb
000000b0: 7de3 f0bb b0c7 0ebe 9b90 bdbd f82f adbd
000000c0: 1afd 673d cdfd a5bd 61b0 8b3d d8a4 ec3c
000000d0: 5e8d 913e 379e 9f3e 1371 823e 5a5d 50bd
000000e0: 5fd0 97be 519e 02be c81b efbd 0276 8b3e
000000f0: 64af 40be eb1d 983d 4cd0 ddbd 1891 323e

bias f4 [8]
-0.05963096 0.20564252 0.018019 -0.29488486 0.28238878 0.03876115 0.2714128 -0.27261707
00000000: 983f 74bd f493 523e 959c 933c 26fb 96be
00000010: 4395 903e 03c4 1e3d 9ef6 8a3e 7794 8bbe

weight f4 [1, 8]
0.14403728 -0.1208909 0.099846855 -0.14403225 0.19738258 0.31368566 0.19232301 0.2365872
00000000: 827e 133e a695 f7bd 827c cc3d 317d 13be
00000010: a91e 4a3e 689b a03e 53f0 443e ea43 723e
