src/model/weights/e_net_a_weights.pt (torch, 13286 bytes, 8 tensors)

weight f4 [8, 2]
0	0x3f4ee679	0.80820423
1	0x3e23e7bb	0.16006367
2	0xbff6af76	-1.9272296
3	0x3fc44e34	1.5336366
4	0xbefacf8e	-0.48986477
5	0xbe8ba1b4	-0.27271807
6	0xc0eb9e5e	-7.363082
7	0xc0de68fb	-6.950315
8	0xc051d7c6	-3.2787948
9	0xbf7101d4	-0.94143414
10	0xbf8ba3e7	-1.0909394
11	0x3fc299ab	1.5203146
12	0x40b578a3	5.670976
13	0x40dd64ae	6.91854
14	0x4119fd1e	9.624296
15	0x40fbac5c	7.86479

weight f4 [1, 2]
0	0x3e98d1f9	0.29847696
1	0x3f560001	0.83593756

weight f4 [8, 7]
0	0x3fd9bc7d	1.7010647
1	0x4034e5bb	2.8265216
2	0x3fa47116	1.2847011
3	0x4093e96c	4.622244
4	0x3e27b76e	0.16378567
5	0xc0ce91ee	-6.4553137
6	0xc0b65b54	-5.6986485
7	0xbec16765	-0.37774196
8	0xbd38ca2d	-0.045114685
9	0x3e7b840b	0.24562089
10	0xbd6f8901	-0.058480266
11	0xbea274c1	-0.317297
12	0x3dbc985b	0.09208747
13	0xbe949f2c	-0.29027689
14	0x402dbac4	2.7145243
15	0x404558f2	3.0835538
16	0x4026e368	2.6076298
17	0x402a20e3	2.6582572
18	0x3e8bd12a	0.27308017
19	0x40d3ecbe	6.622649
20	0x40c22657	6.06718
21	0x404735b7	3.1126535
22	0x40568543	3.3518836
23	0x40629fba	3.540999
24	0x4076474a	3.8481011
25	0xbe2344f1	-0.15944268
26	0x40d82505	6.754519
27	0x40cc42f8	6.383175
28	0x3e41e4e4	0.18934971
29	0xbe72c46a	-0.23707739
30	0xbd74c7dd	-0.059760917
31	0x3d7b5067	0.061355975
32	0xbdb09610	-0.08622372
33	0xbd1f9c76	-0.038967572
34	0x3e48eb15	0.19620927
35	0x405e10b3	3.4697692
36	0x40807217	4.013927
37	0x40707dad	3.7576706
38	0x4078721f	3.8819654
39	0x3ddc577d	0.107588746
40	0x40e82d47	7.255527
41	0x40d7c4ad	6.7427583
42	0x3e7e300a	0.24823013
43	0xbdc3e570	-0.09565246
44	0x3ea07348	0.31337953
45	0x3ea8ea0a	0.32991058
46	0xbe960ed0	-0.29308176
47	0xbe1626c3	-0.14663224
48	0xbdf3a41f	-0.11896538
49	0xbe5e1f96	-0.21691737
50	0xbe447b0a	-0.1918756
51	0xbeb3159d	-0.34977427
52	0x3cb34730	0.02188453
53	0xbe885d73	-0.26633796
54	0x3e135a7c	0.14389986
55	0xbe8b48e5	-0.27204052

bias f4 [8]
0	0x40494579	3.1448653
1	0xbd023314	-0.031786993
2	0x40310cb6	2.7664008
3	0x4065678d	3.5844452
4	0x3d0bf2af	0.034166988
5	0x40754a19	3.8326476
6	0x3e530875	0.20608695
7	0x3ea62ca7	0.32455942

weight f4 [8, 8]
0	0x4085d620	4.1823883
1	0xbdc6805c	-0.09692451
2	0x3f86437b	1.0489343
3	0x3f9a77f8	1.2067862
4	0x3e0150c0	0.1262846
5	0x3f69c593	0.913171
6	0xbe19deeb	-0.15026443
7	0xbdb54617	-0.08851259
8	0xbe65c8bb	-0.22439854
9	0x3dfc02f7	0.12305253
10	0xbea27423	-0.3172923
11	0x3e87c8f9	0.26520517
12	0xbe8cb902	-0.274849
13	0xbcbfbcf7	-0.023405535
14	0x3de94287	0.11389642
15	0xbd7b59be	-0.06136488
16	0x408f6a16	4.4817
17	0x3e066c42	0.13127235
18	0x3f8b15d1	1.0866033
19	0x3f6eb1d6	0.93240106
20	0xbc5935d1	-0.01325746
21	0x3fab428e	1.3379686
22	0x3da174cd	0.07883606
23	0xbea41587	-0.32047674
24	0xbe6eadfb	-0.23308556
25	0xbcbc1341	-0.0229584
26	0xbe9feccc	-0.3123535
27	0xbcbc49ca	-0.022984404
28	0x3d897925	0.067125596
29	0x3e8e953d	0.27848235
30	0x3dd7d1a2	0.10538031
31	0xbe82fd92	-0.25584084
32	0xbd826672	-0.06367196
33	0xbd36f7f2	-0.044670053
34	0x3e333fd1	0.17504813
35	0x3c75bcad	0.014998597
36	0xbe39699d	-0.18106695
37	0xbee713bb	-0.4513224
38	0x3db1ec6a	0.086876705
39	0xbe7d60ed	-0.24744006
40	0xc0d6d1b2	-6.7130976
41	0xbe9eb1b0	-0.3099494
42	0x402adad6	2.6696067
43	0x4059291c	3.393134
44	0x3e8b3e95	0.27196184
45	0x404187fe	3.0239253
46	0x3d5ead0c	0.05436425
47	0x3e8b6600	0.27226257
48	0xc0c6db25	-6.214251
49	0x3e986fd7	0.29772827
50	0x4084838c	4.141058
51	0x4090d0a1	4.5254674
52	0x3e85081d	0.25982752
53	0x409baa5c	4.864546
54	0x3d7cb5af	0.061696704
55	0x3e440c21	0.19145252
56	0x409ce1a7	4.9025455
57	0xbdc03d87	-0.093867354
58	0x3f97ff4b	1.1874784
59	0x3f951dd3	1.1649727
60	0x3a2f544f	0.0006688283
61	0x3f559e06	0.8344425
62	0x3ea8ce8f	0.32970092
63	0x3ea2c230	0.31788778

bias f4 [8]
0	0x4018dbda	2.3884187
1	0x3dcdebbd	0.10054729
2	0x3fb126cd	1.3839966
3	0xbeb47f7a	-0.35253507
4	0xbd3e7291	-0.046495978
5	0x3d968320	0.07349229
6	0x4066cd63	3.6062858
7	0x3f8f064f	1.11738

weight f4 [1, 8]
0	0x4080449b	4.0083747
1	0x3e853632	0.2601791
2	0x3fbdfaa3	1.4842113
3	0x3e176420	0.14784288
4	0x3d47a0b1	0.04873723
5	0xc0741fb7	-3.8144357
6	0xc09cfa95	-4.9055886
7	0x4096d4d3	4.7134795

weight f4 [1, 2]
0	0xbecd8c2f	-0.40146014
1	0xc0aa75ba	-5.326871
