src/model/weights/e_net_a_weights.pt (torch, 13286 bytes, 8 tensors)

weight f4 [8, 2]
000000 79 e6 4e 3f bb e7 23 3e 76 af f6 bf 34 4e c4 3f
       0.80820423 0.16006367 -1.9272296 1.5336366
000010 8e cf fa be b4 a1 8b be 5e 9e eb c0 fb 68 de c0
       -0.48986477 -0.27271807 -7.363082 -6.950315
000020 c6 d7 51 c0 d4 01 71 bf e7 a3 8b bf ab 99 c2 3f
       -3.2787948 -0.94143414 -1.0909394 1.5203146
000030 47 88 b5 40 88 75 dd 40 61 45 1a 41 12 a2 fc 40
       5.6728854 6.920597 9.641938 7.894784

weight f4 [1, 2]
000000 f9 d1 98 3e 7c fc 55 3f
       0.29847696 0.83588386

weight f4 [8, 7]
000000 29 bc d9 3f 44 c2 34 40 16 71 a4 3f 5b e8 93 40
       1.7010547 2.824357 1.2847011 4.6221137
000010 6e b7 27 3e 1f 9b ce c0 6b 60 b6 c0 65 67 c1 be
       0.16378567 -6.4564357 -5.69927 -0.37774196
000020 2d ca 38 bd 0b 84 7b 3e 01 89 6f bd c1 74 a2 be
       -0.045114685 0.24562089 -0.058480266 -0.317297
000030 5b 98 bc 3d 2c 9f 94 be 89 bc 2d 40 b5 e9 46 40
       0.09208747 -0.29027689 2.7146323 3.1080143
000040 68 e3 26 40 50 44 2a 40 2a d1 8b 3e 8b 8a d4 40
       2.6076298 2.6604195 0.27308017 6.641912
000050 bc 7a c2 40 af 35 47 40 71 37 58 40 ba 9f 62 40
       6.077482 3.1126516 3.3783839 3.540999
000060 4f 5d 76 40 f1 44 23 be 9a 79 d8 40 4f 94 cc 40
       3.849445 -0.15944268 6.764844 6.393104
000070 e4 e4 41 3e 6a c4 72 be dd c7 74 bd 67 50 7b 3d
       0.18934971 -0.23707739 -0.059760917 0.061355975
000080 10 96 b0 bd 76 9c 1f bd 15 eb 48 3e 54 11 5e 40
       -0.08622372 -0.038967572 0.19620927 3.4698076
000090 fd 3d 81 40 ad 7d 70 40 6e 92 78 40 7d 57 dc 3d
       4.038817 3.7576706 3.8839374 0.107588746
0000a0 bf 53 e8 40 7f 42 d8 40 0a 30 7e 3e 70 e5 c3 bd
       7.260223 6.758117 0.24823013 -0.09565246
0000b0 48 73 a0 3e 0a ea a8 3e d0 0e 96 be c3 26 16 be
       0.31337953 0.32991058 -0.29308176 -0.14663224
0000c0 1f a4 f3 bd 96 1f 5e be 0a 7b 44 be 9d 15 b3 be
       -0.11896538 -0.21691737 -0.1918756 -0.34977427
0000d0 30 47 b3 3c 73 5d 88 be 7c 5a 13 3e e5 48 8b be
       0.02188453 -0.26633796 0.14389986 -0.27204052

bias f4 [8]
000000 5d 43 49 40 14 33 02 bd 01 1c 31 40 a7 7a 65 40
       3.1447365 -0.031786993 2.7673342 3.585611
000010 af f2 0b 3d ff 76 75 40 75 08 53 3e a7 2c a6 3e
       0.034166988 3.835388 0.20608695 0.32455942

weight f4 [8, 8]
000000 95 d4 85 40 5c 80 c6 bd cd 93 85 3f b7 bc 96 3f
       4.1822 -0.09692451 1.043573 1.1776341
000010 c0 50 01 3e c3 9c 5e 3f eb de 19 be 17 46 b5 bd
       0.1262846 0.8695795 -0.15026443 -0.08851259
000020 bb c8 65 be f7 02 fc 3d 23 74 a2 be f9 c8 87 3e
       -0.22439854 0.12305253 -0.3172923 0.26520517
000030 02 b9 8c be f7 bc bf bc 87 42 e9 3d be 59 7b bd
       -0.274849 -0.023405535 0.11389642 -0.06136488
000040 3f 69 8f 40 42 6c 06 3e 65 6a 8a 3f 2c d1 67 3f
       4.4815974 0.13127235 1.0813719 0.90553546
000050 d1 35 59 bc 49 1f aa 3f cd 74 a1 3d 87 15 a4 be
       -0.01325746 1.3290797 0.07883606 -0.32047674
000060 fb ad 6e be 41 13 bc bc cc ec 9f be ca 49 bc bc
       -0.23308556 -0.0229584 -0.3123535 -0.022984404
000070 25 79 89 3d 3d 95 8e 3e a2 d1 d7 3d 92 fd 82 be
       0.067125596 0.27848235 0.10538031 -0.25584084
000080 72 66 82 bd f2 f7 36 bd d1 3f 33 3e ad bc 75 3c
       -0.06367196 -0.044670053 0.17504813 0.014998597
000090 9d 69 39 be bb 13 e7 be 6a ec b1 3d ed 60 7d be
       -0.18106695 -0.4513224 0.086876705 -0.24744006
0000a0 da d1 d6 c0 b0 b1 9e be 4d 6d 2c 40 80 a2 5b 40
       -6.7131166 -0.3099494 2.6941712 3.4317932
0000b0 95 3e 8b 3e 74 6c 43 40 0c ad 5e 3d 00 66 8b 3e
       0.27196184 3.0534945 0.05436425 0.27226257
0000c0 9c da c6 c0 d7 6f 98 3e 8c cf 85 40 fc 84 92 40
       -6.2141857 0.29772827 4.1815853 4.5787334
0000d0 1d 08 85 3e ab 2b 9d 40 af b5 7c 3d 21 0c 44 3e
       0.25982752 4.9115806 0.061696704 0.19145252
0000e0 ea e3 9c 40 87 3d c0 bd 1d c6 95 3f c5 6f 8e 3f
       4.9028215 -0.093867354 1.1701084 1.1127859
0000f0 4f 54 2f 3a ea b3 4f 3f 8f ce a8 3e 30 c2 a2 3e
       0.0006688283 0.811339 0.32970092 0.31788778

bias f4 [8]
000000 12 da 18 40 bd eb cd 3d 06 22 b1 3f 7a 7f b4 be
       2.38831 0.10054729 1.3838508 -0.35253507
000010 91 72 3e bd 27 bd 96 3d be cf 66 40 f7 fc 8e 3f
       -0.046495978 0.07360297 3.6064296 1.1170949

weight f4 [1, 8]
000000 6a 41 7e 40 32 36 85 3e 17 39 b8 3f 20 64 17 3e
       3.9727426 0.2601791 1.4392422 0.14784288
000010 b1 a0 47 3d f0 a8 75 c0 cc 9c a1 c0 d0 9f 95 40
       0.04873723 -3.8384361 -5.0503902 4.6757584

weight f4 [1, 2]
000000 3c 80 cd be 3c 08 b1 c0
       -0.40136898 -5.532255
