src/model/weights/t_net_a_weights.pt (torch, 8211 bytes, 5 tensors)

weight f4 [8, 7]
0	0x3e9b9c57	0.30392715
1	0xbe0a1d26	-0.13487682
2	0x3eb2a85f	0.34894082
3	0x3e6b9978	0.23007762
4	0x3e2b8461	0.16749717
5	0xbd99b477	-0.07505124
6	0x3e5f31d8	0.21796358
7	0x3eb075d3	0.34464893
8	0xbe1fd106	-0.1560708
9	0x3e8f9bc2	0.2804852
10	0x3ddb7124	0.10714939
11	0x3e18e54e	0.14931223
12	0x3e9b6b2c	0.30355203
13	0x3dedc27a	0.11609359
14	0xbe9dc131	-0.30811456
15	0x3e4be38f	0.19911025
16	0xbe8ecbf8	-0.2788999
17	0xbd476b48	-0.048686296
18	0x3e58549e	0.21126029
19	0x3e18c36e	0.149183
20	0x3d764577	0.06012484
21	0x3e0dc6e0	0.13845396
22	0x3ea9b686	0.33147067
23	0xbe896873	-0.268375
24	0xbe7a3083	-0.24432568
25	0x3de86d75	0.11349002
26	0xbe6a4de9	-0.22881283
27	0x3dad4001	0.084594734
28	0x3de84a5b	0.11342307
29	0xbe84e104	-0.25952923
30	0x3d49ee03	0.04929925
31	0x3ea7a465	0.3274261
32	0x3e57ba6b	0.21067207
33	0xbe5bd933	-0.21469574
34	0x3e45a46d	0.19301005
35	0x3d635b08	0.055506736
36	0x3c1b1aae	0.00946681
37	0xbcee89a4	-0.029118367
38	0xbe974408	-0.2954409
39	0xbc82180e	-0.01588061
40	0x3ce3d2c1	0.027810456
41	0x3eb9ba1f	0.36274812
42	0xbebf476c	-0.37359178
43	0x3ddd988c	0.10820112
44	0xbd9cc732	-0.07655181
45	0x3e82566d	0.25456563
46	0xbca2b881	-0.019863369
47	0xbe6fe297	-0.23426281
48	0x3ddad1d5	0.106845535
49	0x3e8f337d	0.2796897
50	0x3cf1337d	0.029443497
51	0x3d10d424	0.035358563
52	0x3d783eb6	0.06060668
53	0x3e9ec033	0.3100601
54	0x3ddcca09	0.10780723
55	0xbeb7f474	-0.3592869

bias f4 [8]
0	0x3df4a29c	0.11945078
1	0x3e376398	0.17909086
2	0x3d9bbf3c	0.076048344
3	0x3e8dc741	0.2769108
4	0x3dce93d2	0.10086788
5	0x3e5ea710	0.21743417
6	0xbdb1e9ec	-0.08687195
7	0xbeb95d9b	-0.36204228

weight f4 [8, 8]
0	0x3c93f4e2	0.018061105
1	0xbea7bd09	-0.3276141
2	0xbeafa277	-0.34303638
3	0xbe19b051	-0.15008666
4	0xbe230434	-0.15919572
5	0x3d977217	0.07394808
6	0x3e836bfb	0.2566832
7	0xbe80bb34	-0.25142825
8	0xbe155f10	-0.14587045
9	0x3e8a7fe3	0.27050695
10	0xbe176ecc	-0.1478836
11	0x3e193137	0.1496018
12	0x3e1eebb5	0.15519603
13	0x3e8669df	0.26252648
14	0xbe7abc0c	-0.24485797
15	0x3e1dd67d	0.15413852
16	0x3e9c3c5e	0.30514807
17	0x3e34061b	0.17580454
18	0x3b6b6ef4	0.0035924288
19	0xbd9c75e9	-0.07639677
20	0x3e39f93c	0.18161482
21	0xbe8de569	-0.2771409
22	0x3e544cdb	0.20732443
23	0x3e8aa950	0.270823
24	0x3de80d30	0.1133064
25	0x3ddba757	0.10725277
26	0xbe3aab9a	-0.18229523
27	0x3eae5e8a	0.34056503
28	0xbe19fe35	-0.15038379
29	0x3eb26259	0.34840658
30	0x3c9c46dd	0.019076759
31	0xbbc24387	-0.00592846
32	0xbea9085c	-0.3301419
33	0x3e7b6c9d	0.24553151
34	0x3e0d7db3	0.13817482
35	0xbe9422cd	-0.289328
36	0x3ddc32aa	0.10751851
37	0xbe4402ce	-0.19141695
38	0xbd18b614	-0.03728302
39	0xbe79d487	-0.24397479
40	0xbe9e6056	-0.30932873
41	0x3e693432	0.22773817
42	0xbe24e33c	-0.16102308
43	0xbea958ff	-0.3307571
44	0xbe61d10d	-0.22052403
45	0x3e675ed2	0.22594765
46	0x3b831da7	0.0040013376
47	0xbdbb2d39	-0.09139485
48	0xbe78c992	-0.24295643
49	0x3d2de486	0.042454265
50	0xbea1798d	-0.31538048
51	0xbe98b5b9	-0.29826143
52	0x3e82b5d1	0.2552934
53	0xbeac2cfd	-0.33628073
54	0x3e796265	0.24353941
55	0x3e00f82a	0.12594667
56	0xbe2bdff6	-0.16784653
57	0x3e9a5153	0.3014017
58	0xbe62de0a	-0.22155014
59	0xbea8dd29	-0.32981232
60	0x3dd2261f	0.10261177
61	0xbe88f834	-0.26751864
62	0x3e7f5356	0.24934134
63	0x3d1b0b46	0.037852548

bias f4 [8]
0	0xbe831d8d	-0.25608483
1	0xbeb2d806	-0.34930438
2	0x3e963098	0.2933395
3	0x3ea28564	0.31742394
4	0x3e54b749	0.20773043
5	0x3dbe7dd7	0.09301346
6	0xbe594034	-0.21215898
7	0xbe218f67	-0.1577736

weight f4 [1, 8]
0	0x3e87ab92	0.26498085
1	0x3e15e7c4	0.14639193
2	0x3c064d7a	0.008197183
3	0xbea79ff3	-0.3273922
4	0x3e3e9c6c	0.18614358
5	0xbdc07f82	-0.0939932
6	0x3e62d9c0	0.22153378
7	0x3e8d1d06	0.27561206
