src/model/weights/t_net_a_weights.pt (torch, 8927 bytes, 5 tensors)

weight f4 [8, 7]
00000000: 0dec 2f40 d4ed 7e41 c94d 1e40 7ba9 9640
00000010: b8e5 3540 2bf5 6b41 2ee3 6e41 049a 4540
00000020: e7b6 7d41 cdd8 2440 a22b 9640 b33f 4d40
00000030: d3b2 6941 2e5c 6941 6315 5140 f941 7541
00000040: 76f2 5840 1bac 9940 177a 5440 bf8f 6041
00000050: 458e 5941 3965 b7be 3ad8 08be 5b5f 743d
00000060: d2da 783e 3481 bebe a341 bf3d 0d88 943d
00000070: 8fdd 2a40 66f8 8341 168b 3340 f7af a240
00000080: 8fd6 5d40 b7aa 7041 c766 7541 6268 3f40
00000090: 8d51 7441 83ac 4940 9e70 a140 6d90 6040
000000a0: 7d67 6841 9a68 6241 a3c7 1e40 b534 7941
000000b0: 8ec8 3e40 02b2 9340 e0ce 4a40 b8b9 6c41
000000c0: d1a2 6b41 5ced 243e f364 09be fb3b babd
000000d0: 1117 b0bd 75ff 573e ecf7 473e 6144 7fbe
2.7487824 15.9330635 2.4734976 4.7081885 2.842146 14.747355 14.930464 3.0875254
15.857154 2.5757325 4.6928263 3.207013 14.606158 14.585005 3.2669303 15.328607
3.3897986 4.802259 3.3199518 14.035094 13.597234 -0.35819414 -0.13363734 0.05966125
0.24302223 -0.3720795 0.09338691 0.07252512 2.6697729 16.496288 2.8053641 5.08398
3.4662206 15.041678 15.337592 2.990746 15.26991 3.1511543 5.044997 3.508815
14.525266 14.1505375 2.4809349 15.575368 2.980991 4.6154795 3.1688766 14.7953415
14.72725 0.1610617 -0.13417415 -0.090934716 -0.085981496 0.21093543 0.19528168 -0.24928428

bias f4 [8]
00000000: 41a7 4540 ee17 3540 aeb8 4940 b0fc 10be
00000010: fea7 1340 f885 4840 3643 4940 f9a7 d9be
3.0883334 2.8295856 3.151897 -0.14158893 2.3071284 3.1331768 3.1447272 -0.42510965

weight f4 [8, 8]
00000000: 93d2 a9be e1a6 a43d c15b 42be 15a0 91ba
00000010: d2c5 80be 2420 a1be 7aac 29be 8e13 b23e
00000020: a00e f340 62d0 f640 707d c240 af55 1d3e
00000030: 6f03 1441 a85f d440 8d2b f440 e77e a93e
00000040: 8c2b 993d 7ab4 0dbe 9f96 0d3e 1c17 733e
00000050: 0f2b 8f3d 87c0 a6be 393a 253e 2abf 023d
00000060: b7a0 0241 4c0c f740 5cac c040 03c6 4ebc
00000070: 7c6c 1541 9a2b ce40 5ee6 fd40 751d 883e
00000080: 4a07 0341 3782 0041 6ed8 bd40 81dc fd3d
00000090: a665 1641 9c09 d740 5378 f640 5a6a 26be
000000a0: 2886 fe40 8250 0341 cba0 c740 1b1d 02bd
000000b0: 967e 1741 e4a2 de40 9f40 f540 cc22 48be
000000c0: dbde ff40 b375 0041 021f bd40 829e f7bd
000000d0: 5e1c 1741 27f7 cb40 c739 fc40 2dbf 54be
000000e0: b5c4 0741 131f 0041 e2a3 d140 1853 2b3d
000000f0: 4823 1841 1642 da40 744b 0441 fbd5 38bc
-0.33168468 0.08039642 -0.18980314 -0.001111033 -0.25150925 -0.31469834 -0.16569701 0.34780544
7.5955353 7.7129374 6.077812 0.15364717 9.250838 6.636677 7.6303163 0.3310463
0.07479009 -0.13838378 0.13826989 0.23739284 0.06990635 -0.32568762 0.16135491 0.03192059
8.164237 7.720251 6.02104 -0.012620452 9.338985 6.4428225 7.934371 0.26584974
8.18928 8.031791 5.9326696 0.123955734 9.3998165 6.719923 7.702188 -0.16251507
7.9538765 8.207155 6.238378 -0.03176604 9.468405 6.957384 7.6641383 -0.19544524
7.995954 8.028735 5.910035 -0.1209078 9.444426 6.37392 7.882053 -0.20776053
8.485524 8.0075865 6.551255 0.04182729 9.508614 6.820567 8.268421 -0.011281486

bias f4 [8]
00000000: cf06 85be dddb e1bf 85f8 d3be eb0d f0bf
00000010: 7e2c dcbf f5f0 d2bf 142e c2bf 8e76 c8bf
-0.25981757 -1.7645222 -0.41400543 -1.8754247 -1.7201078 -1.6479784 -1.5170312 -1.566118

weight f4 [1, 8]
00000000: 50f5 ccbd 90a3 0841 3a9b b9bd 2326 0d41
00000010: 3f4d 0841 cb6f 0441 e9c6 0741 d6c4 0141
-0.10007727 8.539932 -0.0906281 8.821811 8.518859 8.277293 8.486062 8.110556
