src/model/weights/t_net_a_weights.pt (torch, 8927 bytes, 5 tensors)

weight f4 [8, 7]
00000000: 7437 2541 9b13 a640 b8fa 1f41 d68d a440
00000010: 9cea bfbe 08c9 2740 fd19 b43e 6f1f 2b41
00000020: 2a92 a940 d822 2241 1ad0 a540 ac21 88be
00000030: e789 2340 e0ec a23d 3867 2641 f97f b240
00000040: 19b3 2741 2af7 ad40 bbd8 64bd 09c4 1f40
00000050: c62b c1be 3965 b7be 3ad8 08be 5b5f 743d
00000060: d2da 783e 3481 bebe a341 bf3d 0d88 943d
00000070: 5f01 2141 71fe 9f40 1666 2241 e9de aa40
00000080: 03f7 64be e3d0 2140 03f1 c03e be10 2741
00000090: 0239 a340 faec 2841 f195 b140 5366 533e
000000a0: 600c 3540 0e73 d2bc 7a06 1e41 f621 a140
000000b0: 8569 2541 54b4 a340 9fe6 febd b341 2f40
000000c0: 9174 4a3e f2fc 243e f364 09be d51c babd
000000d0: 1117 b0bd 75ff 573e 8507 483e 6144 7fbe
10.326038 5.1898932 9.998711 5.142314 -0.3748368 2.621645 0.35176077 10.695174
5.2990923 10.133507 5.181653 -0.2658819 2.555292 0.079553366 10.4002 5.5781217
10.481225 5.4364214 -0.055870753 2.49634 -0.3772871 -0.35819414 -0.13363734 0.05966125
0.24302223 -0.3720795 0.09338691 0.07252512 10.062835 4.9998097 10.149923 5.3397107
-0.22359852 2.5283744 0.37683877 10.441587 5.100709 10.557856 5.5495534 0.20644502
2.8288803 -0.025689628 9.876581 5.0353956 10.338262 5.1157627 -0.12446331 2.738385
0.19771029 0.16112116 -0.13417415 -0.090875305 -0.085981496 0.21093543 0.19534118 -0.24928428

bias f4 [8]
00000000: 4099 b540 9253 ae40 60e8 aa40 b0fc 10be
00000010: 1564 9640 278f b140 8b5f b040 2fa0 d9be
5.6749573 5.4477015 5.340866 -0.14158893 4.699717 5.5487247 5.511663 -0.42505023

weight f4 [8, 8]
00000000: 93d2 a9be e1a6 a43d c15b 42be 15a0 91ba
00000010: d2c5 80be 2420 a1be 7aac 29be 8e13 b23e
00000020: 660e 0d41 4a85 1241 70ea 0a41 af55 1d3e
00000030: 3432 1141 2c4b 1841 8808 1041 6e87 a93e
00000040: 8c2b 993d 7ab4 0dbe 9f96 0d3e 1c17 733e
00000050: 0f2b 8f3d 87c0 a6be 393a 253e 2abf 023d
00000060: e17a 1841 9a03 1541 866e 0c41 03c6 4ebc
00000070: 018d 1441 5ca3 1741 a03e 1741 f824 883e
00000080: 77f9 1641 d504 1841 53ee 0841 81dc fd3d
00000090: f40c 1441 c6fb 1941 5198 1141 d259 26be
000000a0: c933 1241 38bc 1941 b875 0c41 1b1d 02bd
000000b0: 9585 1441 f479 1c41 d0f3 0f41 7111 48be
000000c0: 0d4b 1241 d53d 1641 cc5b 0641 829e f7bd
000000d0: 9b62 1341 0a5d 1241 4ec8 1241 a6ad 54be
000000e0: a921 1a41 15e5 1541 3d99 1041 1853 2b3d
000000f0: 39e6 1441 eb77 1941 5605 1941 92bb 37bc
-0.33168468 0.08039642 -0.18980314 -0.001111033 -0.25150925 -0.31469834 -0.16569701 0.34780544
8.816015 9.157541 8.682236 0.15364717 9.074757 9.5183525 9.002083 0.33111137
0.07479009 -0.13838378 0.13826989 0.23739284 0.06990635 -0.32568762 0.16135491 0.03192059
9.53 9.313379 8.776983 -0.012620452 9.284425 9.477383 9.452789 0.26590705
9.4359045 9.50118 8.558185 0.123955734 9.253162 9.623968 9.099687 -0.16245201
9.137643 9.608452 8.77874 -0.03176604 9.282613 9.779774 8.997025 -0.19537903
9.143323 9.390096 8.397411 -0.1209078 9.211574 9.147715 9.1739025 -0.20769367
9.633218 9.368428 9.037412 0.04182729 9.306207 9.591777 9.563803 -0.011214154

bias f4 [8]
00000000: cf06 85be 4afa 6140 85f8 d3be 16e1 6040
00000010: cf01 6540 d291 6340 2a0f 6840 d07b 6440
-0.25981757 3.5309014 -0.41400543 3.5137382 3.5782354 3.5557752 3.6259255 3.570057

weight f4 [1, 8]
00000000: 50f5 ccbd 2dae 1641 3a9b b9bd 2dae 1c41
00000010: 5e24 1841 68bd 1541 e135 1541 90d6 1441
-0.10007727 9.417523 -0.0906281 9.792523 9.508879 9.358742 9.325654 9.302383
