e_net_a_weights.pt (torch, 11852 bytes, 8 tensors)

weight f4 [8, 2]
00000000: 2bc3 0c3f 599a afbe b36a d53f 90d7 41bf
00000010: 6378 9d3c 497f 883e 2c97 10bf 5ab6 5bbf
00000020: 9176 d0bf e37a 87be b089 50bf 17dc ccbe
00000030: bd50 5cbf e4ed b3be 2ce1 793f 2b09 e6be
0.549853 -0.34297445 1.6673187 -0.7571955 0.019222444 0.2665961 -0.5648067 -0.8582512
-1.6286184 -0.26460943 -0.81460094 -0.40011665 -0.86060697 -0.35142434 0.9760921 -0.4492887

weight f4 [1, 2]
00000000: 0ca2 2e3f e626 c4be
0.68216014 -0.38310927

weight f4 [8, 7]
00000000: 7296 f0bd e53a 95be 2047 9bbe 1686 6f3e
00000010: a2ba 783d d688 59be e547 a7bd a7a5 323d
00000020: 005c c1be f783 a13e 3a84 bd3e cec8 5c3c
00000030: c7f9 e73c eeb5 553d ea93 c1bd 89e1 9d3d
00000040: 62d1 e9bd 82e4 9c3e fa6b 323e 9ac8 a7be
00000050: d6a9 dbbc e4c6 55be e11c b23b 9e88 863e
00000060: 6778 293e c239 2ebe e2b8 4bbe 706f afbc
00000070: d6ca cb3d c685 2ebe a404 a2bd c0b2 07be
00000080: cc93 583c 4ded 91bd 25fb b4bd 33c2 0fbe
00000090: 922a 6dbe 1bb8 6f3d 9cdb b0be 5df9 4ebe
000000a0: 4cc6 123d 5e5d 38bc cd73 70be 6e4f 303d
000000b0: 7591 673e 9067 44be f4df 153e bdbe 113e
000000c0: c83e 8fbe 0fbe 80be 174b 9c3e 061a 753e
000000d0: 723b bc3c 76cc 013e 6bf9 0f3e 83a8 ae3d
-0.11747445 -0.29146495 -0.30327702 0.23390993 0.060724862 -0.21243605 -0.0816801 0.04361501
-0.37765503 0.31545994 0.37014943 0.01347561 0.028317345 0.052175455 -0.094520405 0.07709033
-0.1141689 0.30643088 0.17424002 -0.32770234 -0.026814383 -0.20876652 0.0054355715 0.26276106
0.16549836 -0.1701422 -0.19894746 -0.021415442 0.09950797 -0.17043218 -0.079110414 -0.13251781
0.013218831 -0.0712534 -0.088369645 -0.14038925 -0.2316077 0.058525186 -0.3454255 -0.20212312
0.035833642 -0.011252729 -0.23481674 0.0430445 0.22614081 -0.19180131 0.14636213 0.14232917
-0.27977586 -0.25145003 0.3052604 0.23935708 0.022977564 0.12675652 0.14059989 0.08528235

bias f4 [8]
00000000: cd62 93bd 570b 3a3e 737a f2bd 21f4 b83e
00000010: 7c7e 8ebc 02e3 adbe 3d0a 1b3c 2580 e0bd
-0.07196579 0.18168388 -0.118397616 0.36123756 -0.017394297 -0.33962256 0.00946289 -0.10961942

weight f4 [8, 8]
00000000: f1d9 b13d 84cc 81be 1fdd 533d 19a6 d83c
00000010: 628f 943c 115b 5ebe 48a9 a93d db70 79be
00000020: fc3f a6bd be95 043e 81be 383e 4595 8dbe
00000030: 9f11 763e f568 94bd 1986 613e 2c8e 893e
00000040: bf46 61be d746 553e 5237 a4be eaf8 2cbe
00000050: a6f2 823e 6b88 3dbe 23b6 743e b1b4 9b3d
00000060: 4f5d 58be 98a9 a33e fa0d 3d3e 7a43 83be
00000070: bed4 2cbe d9c3 8cbe a3c7 5dbd c29e 833e
00000080: 0d86 1cbe 2fbf 903e de01 72bb 598e 0d3e
00000090: 15d6 5c3e 1b32 3fbd 62d8 813d 5423 a9be
000000a0: 597e 573d 1574 12bd 8b00 3d3e de17 923e
000000b0: fab1 bcbd e39f 85be 8526 8e3e 2030 d33d
000000c0: f457 7bbe 69f5 9c3d 80ca 283e 4e4a 993b
000000d0: 4379 43be c637 903e 99bf 64be e6f1 63be
000000e0: f647 adbe 84aa 873e 2147 aabe 2fd8 9bbe
000000f0: c142 b43e a3ad 813e c913 443d 21ad 353e
0.08684147 -0.25351346 0.05172455 0.026446389 0.018134777 -0.21714427 0.08284241 -0.24359457
-0.08117673 0.12947747 0.18041421 -0.27652946 0.2403016 -0.072465815 0.2202381 0.2686628
-0.21999644 0.20827805 -0.32073456 -0.16891828 0.2557575 -0.1850907 0.23897605 0.076028235
-0.21129344 0.31965327 0.18462363 -0.25637418 -0.1687803 -0.2749317 -0.054145467 0.2570706
-0.15285511 0.28270862 -0.0036927382 0.13823833 0.21566041 -0.046678644 0.063401 -0.33034766
0.05261073 -0.035755236 0.18457238 0.28533834 -0.09213634 -0.26098546 0.27763763 0.103119135
-0.2454527 0.07663996 0.16483498 0.0046780473 -0.19089226 0.28167552 -0.22338714 -0.22260246
-0.33843964 0.2649728 -0.33257392 -0.30438372 0.3520718 0.25327787 0.04787043 0.17741825

bias f4 [8]
00000000: 89a6 e53c 55bf ae3d 88ff 0f3e 27dc 9ebe
00000010: 3366 7a3e c790 963e 771e 8cbb 5f33 7dbe
0.028033512 0.085325874 0.14062321 -0.31027338 0.24453048 0.2940733 -0.0042760926 -0.24726628

weight f4 [1, 8]
00000000: ef76 a33b 1ee2 8dbe c969 10be 97fd 34be
00000010: 794c 533e 7391 973e a0b4 7ebe 0602 a23d
0.004988543 -0.27711576 -0.14102854 -0.17674862 0.20634641 0.29603156 -0.2487359 0.07910542

weight f4 [1, 2]
00000000: c1f5 aa3d ae8e af3e
0.08347655 0.34288543
