t_net_a_weights.pt (torch, 8211 bytes, 5 tensors)

weight f4 [8, 7]
000000 4d 54 a9 3e 35 08 b8 3e 59 ad b7 3e 97 24 0e be
       0.3307213 0.3594376 0.3587444 -0.13881145
000010 5a 0c 81 3e ae c6 c4 bd 27 3e 6a 3e fe cb 91 be
       0.25204736 -0.09608208 0.22875272 -0.28475946
000020 b6 31 a2 bd 8d 3a df bd 1d 84 b4 be eb aa 82 3d
       -0.07919638 -0.108998396 -0.35257044 0.06380256
000030 d7 6a ae be 9f e6 fe 3d 51 1a ba be 09 55 9a 3e
       -0.34065887 0.12446331 -0.36348203 0.30143002
000040 f4 fe 75 be b2 65 4e be 99 20 27 be e3 e6 1f 3e
       -0.24023038 -0.20155981 -0.16321029 0.1561542
000050 2d b0 9a be a6 a4 31 be 35 bd 5b 3b 8c 08 89 be
       -0.30212536 -0.17347965 0.0033529524 -0.26764333
000060 04 a5 a6 be 69 ca 19 be d9 f6 49 bd a0 d0 67 3e
       -0.32547772 -0.1501862 -0.049307678 0.22638178
000070 45 4b 9c 3e 6b 90 2d bd cf ea 40 be 19 90 38 be
       0.30526176 -0.042374056 -0.18839572 -0.18023719
000080 6b b7 bc bb b2 d1 87 be 97 26 f4 3d d1 15 4e be
       -0.00575917 -0.26527172 0.11921423 -0.2012551
000090 41 8e 8f 3e 30 d9 4f 3e 75 28 6c 3e 73 d4 a7 be
       0.2803822 0.20297694 0.23062308 -0.32779273
0000a0 25 5b 1c 3e 0f 91 e4 bd 6c 6b 8c 3e cf 63 7c 3e
       0.15269144 -0.1116048 0.27425706 0.24647449
0000b0 9d d7 a1 3c f7 47 8e 3e 18 f0 96 be 3e a4 b6 3e
       0.019756133 0.2778928 -0.29480052 0.35672182
0000c0 7b c7 47 3e c3 88 b2 3d cf e9 e1 3d 84 99 73 be
       0.1950969 0.087174915 0.110309236 -0.2378903
0000d0 a2 9c fa bd 04 46 0e 3e 2e 09 64 3e 2d f7 4a 3e
       -0.122369066 0.13893896 0.22269127 0.19820853

bias f4 [8]
000000 ae 0b 21 be 6f 23 2a 3e f1 84 a6 3e e0 d7 a6 be
       -0.15727112 0.1661508 0.325233 -0.32586575
000010 a3 98 21 bd e8 b8 1d 3e 41 08 93 3e dc 7d 05 be
       -0.039452206 0.15402567 0.28717235 -0.13036293

weight f4 [8, 8]
000000 bd 7a a0 3e ca bf b3 be a7 49 b3 be b0 de 6f 3e
       0.31343642 -0.3510726 -0.3501713 0.23424792
000010 96 cd 0c be 48 cb 4a 3e ec 28 2d 3d ab 3a 31 3e
       -0.137503 0.19804108 0.042275354 0.17307536
000020 6b fc a8 3e 58 fa 66 be a4 e9 96 bd a9 16 65 be
       0.3300508 -0.22556436 -0.07368782 -0.22371925
000030 44 0d a7 3d b9 ad 83 3d df 72 8f 3e bf 50 e7 3d
       0.08156827 0.06429619 0.28017327 0.11294698
000040 ee 77 70 be 0c 97 1b 3e b5 74 aa 3d 7c fd 8c be
       -0.2348325 0.15194339 0.08323041 -0.27537143
000050 a3 45 3c 3d f1 e5 ce 3d ce 9c 0c be 8f f7 45 3e
       0.04596485 0.101024516 -0.13731691 0.19332717
000060 1a 9d 52 3e 8d 03 c7 3d 46 86 b3 3e 4f 2f 83 be
       0.20567742 0.09717474 0.3506338 -0.2562203
000070 6f f4 2d 3e 36 93 94 3e 2f 03 99 3e a4 52 42 bd
       0.16987775 0.29018563 0.2988524 -0.047442093
000080 f8 21 a8 be e3 52 b5 bd 8a 92 84 3d d4 1d 86 3e
       -0.32838416 -0.088537 0.064732626 0.26194632
000090 f0 98 02 be c6 c0 1c be f5 1e b1 3c ea 7a f2 bd
       -0.12753654 -0.15307912 0.021621207 -0.1183985
0000a0 6e d9 3c 3e 1d 9a b2 3e 03 f9 76 be 10 3d 27 3e
       0.18442318 0.34883204 -0.24118428 0.16331887
0000b0 db 23 02 3e 37 0a 8e bd 67 01 a3 3e 0f 57 42 3d
       0.1270899 -0.06935542 0.31837007 0.047446307
0000c0 d7 f1 37 3e 6b 0e bb bc 3c 15 84 be de 19 ae bd
       0.17963348 -0.022834023 -0.2579745 -0.085010275
0000d0 ce 6f b0 be b3 17 a2 bd 85 e2 11 be 3a 46 50 3e
       -0.344603 -0.079146765 -0.14246567 0.2033929
0000e0 0e 5b 8d 3e fe b3 7a be e2 86 e7 3d 5b 62 a4 bd
       0.27608532 -0.24482724 0.11305024 -0.08026572
0000f0 f7 03 d5 bd ad 43 69 be 9f 30 57 be 47 11 1c be
       -0.10401147 -0.22779723 -0.21014641 -0.15240966

bias f4 [8]
000000 4c 0e a5 be 99 82 7c be ea 19 36 bd 92 73 19 3e
       -0.3223747 -0.24659194 -0.044458307 0.14985493
000010 a3 6c 84 be 16 cc 7b 3e 72 8e 87 be 83 3e 90 be
       -0.25864133 0.24589571 -0.26475865 -0.28172693

weight f4 [1, 8]
000000 04 3c 24 3e fd b9 14 3e 54 f2 ab be 45 b7 80 be
       0.16038519 0.14524074 -0.3358332 -0.25139824
000010 be d0 0f 3e db cc 5a be 9c be 13 3e 4f a4 8a be
       0.14044473 -0.21367209 0.1442818 -0.27078483
