src/model/saved_routes_part_3/rush/weights/e_net_a_weights.pt (torch, 13286 bytes, 8 tensors)

weight f4 [8, 2]
0	0x3f4ee679	0.80820423
1	0x3e23e7bb	0.16006367
2	0xbff6af76	-1.9272296
3	0x3fc44e34	1.5336366
4	0xbefacf8e	-0.48986477
5	0xbe8ba1b4	-0.27271807
6	0xc0eb9e5e	-7.363082
7	0xc0de68fb	-6.950315
8	0xc051d7c6	-3.2787948
9	0xbf7101d4	-0.94143414
10	0xbf8ba3e7	-1.0909394
11	0x3fc299ab	1.5203146
12	0x40a6d436	5.2134047
13	0x40cecf2c	6.4627895
14	0x41042502	8.259035
15	0x40d0e499	6.527905

weight f4 [1, 2]
0	0x3edb5183	0.42835626
1	0x3fd9f203	1.7026981

weight f4 [8, 7]
0	0x401c0539	2.4378188
1	0x405c6124	3.443429
2	0x3ff16613	1.8859276
3	0x40a94656	5.289836
4	0x3e27b76e	0.16378567
5	0xc0b66beb	-5.7006736
6	0xc0a1060f	-5.0319896
7	0xbec16765	-0.37774196
8	0xbd38ca2d	-0.045114685
9	0x3e7b840b	0.24562089
10	0xbd6f8901	-0.058480266
11	0xbea274c1	-0.317297
12	0x3dbc985b	0.09208747
13	0xbe949f2c	-0.29027689
14	0x4010e52a	2.263987
15	0x402abcae	2.667766
16	0x401969e6	2.3970885
17	0x400d62c4	2.2091532
18	0x3e8bd12a	0.27308017
19	0x40c590f6	6.1739454
20	0x40b416f0	5.6278
21	0x40257b5c	2.5856543
22	0x4038ca60	2.887352
23	0x4051085e	3.2661357
24	0x40559076	3.3369422
25	0xbe2344f1	-0.15944268
26	0x40c70466	6.219287
27	0x40bc36cc	5.881689
28	0x3e41e4e4	0.18934971
29	0xbe72c46a	-0.23707739
30	0xbd74c7dd	-0.059760917
31	0x3d7b5067	0.061355975
32	0xbdb09610	-0.08622372
33	0xbd1f9c76	-0.038967572
34	0x3e48eb15	0.19620927
35	0x403a53cf	2.9113653
36	0x4061b93b	3.5269306
37	0x405cff19	3.45307
38	0x40562a5a	3.346335
39	0x3ddc577d	0.107588746
40	0x40d5dab8	6.682949
41	0x40c7155f	6.221359
42	0x3e7e300a	0.24823013
43	0xbdc3e570	-0.09565246
44	0x3ea07348	0.31337953
45	0x3ea8ea0a	0.32991058
46	0xbe960ed0	-0.29308176
47	0xbe1626c3	-0.14663224
48	0xbdf3a41f	-0.11896538
49	0xbe5e1f96	-0.21691737
50	0xbe447b0a	-0.1918756
51	0xbeb3159d	-0.34977427
52	0x3cb34730	0.02188453
53	0xbe885d73	-0.26633796
54	0x3e135a7c	0.14389986
55	0xbe8b48e5	-0.27204052

bias f4 [8]
0	0x4073ff60	3.8124619
1	0xbd023314	-0.031786993
2	0x40143a75	2.316068
3	0x4044adce	3.0731082
4	0x3d0bf2af	0.034166988
5	0x40530eeb	3.2977855
6	0x3e530875	0.20608695
7	0x3ea62ca7	0.32455942

weight f4 [8, 8]
0	0x40986861	4.7627416
1	0xbdc6805c	-0.09692451
2	0x3fe2fd74	1.7733598
3	0x3ff3e50d	1.9054276
4	0x3e0150c0	0.1262846
5	0x3fcc596b	1.5964788
6	0xbe19deeb	-0.15026443
7	0xbdb54617	-0.08851259
8	0xbe65c8bb	-0.22439854
9	0x3dfc02f7	0.12305253
10	0xbea27423	-0.3172923
11	0x3e87c8f9	0.26520517
12	0xbe8cb902	-0.274849
13	0xbcbfbcf7	-0.023405535
14	0x3de94287	0.11389642
15	0xbd7b59be	-0.06136488
16	0x40a291eb	5.0803123
17	0x3e066c42	0.13127235
18	0x3fedf0c1	1.8589097
19	0x3fd72237	1.6807317
20	0xbc5935d1	-0.01325746
21	0x4006985d	2.1030495
22	0x3da174cd	0.07883606
23	0xbea41587	-0.32047674
24	0xbe6eadfb	-0.23308556
25	0xbcbc1341	-0.0229584
26	0xbe9feccc	-0.3123535
27	0xbcbc49ca	-0.022984404
28	0x3d897925	0.067125596
29	0x3e8e953d	0.27848235
30	0x3dd7d1a2	0.10538031
31	0xbe82fd92	-0.25584084
32	0xbd826672	-0.06367196
33	0xbd36f7f2	-0.044670053
34	0x3e333fd1	0.17504813
35	0x3c75bcad	0.014998597
36	0xbe39699d	-0.18106695
37	0xbee713bb	-0.4513224
38	0x3db1ec6a	0.086876705
39	0xbe7d60ed	-0.24744006
40	0xc0e89608	-7.2683144
41	0xbe9eb1b0	-0.3099494
42	0x4001d079	2.0283492
43	0x40311ea0	2.7674942
44	0x3e8b3e95	0.27196184
45	0x4018f038	2.3896618
46	0x3d5ead0c	0.05436425
47	0x3e8b6600	0.27226257
48	0xc0d8b836	-6.7724867
49	0x3e986fd7	0.29772827
50	0x40608640	3.508194
51	0x407a0b02	3.9069219
52	0x3e85081d	0.25982752
53	0x4087b06d	4.2402864
54	0x3d7cb5af	0.061696704
55	0x3e440c21	0.19145252
56	0x40af694b	5.481603
57	0xbdc03d87	-0.093867354
58	0x3ff297d2	1.8952582
59	0x3feb0139	1.8359748
60	0x3a2f544f	0.0006688283
61	0x3fc44f2d	1.5336663
62	0x3ea8ce8f	0.32970092
63	0x3ea2c230	0.31788778

bias f4 [8]
0	0x40492a8b	3.1432216
1	0x3dcdebbd	0.10054729
2	0x400b196e	2.173427
3	0xbeb47f7a	-0.35253507
4	0xbd3e7291	-0.046495978
5	0xbf1d5947	-0.6146435
6	0x403a20ee	2.9082599
7	0x3fef2a12	1.8684714

weight f4 [1, 8]
0	0x409781b3	4.7345824
1	0x3e853632	0.2601791
2	0x400cc03f	2.1992338
3	0x3e176420	0.14784288
4	0x3d47a0b1	0.04873723
5	0xc04b0393	-3.1720932
6	0xc08bf2bc	-4.3733807
7	0x40add6c7	5.432468

weight f4 [1, 2]
0	0xbf9a7d6b	-1.2069525
1	0xc0a26e64	-5.0759754
