src/model/saved_routes_part_3/rush/weights/t_net_a_weights.pt (torch, 8927 bytes, 5 tensors)

weight f4 [8, 7]
0	0x41b0c3c0	22.095581
1	0x4200298f	32.040585
2	0x41ae44ef	21.783659
3	0x41ffb582	31.963627
4	0xbebfea9c	-0.3748368
5	0x3e2e93ff	0.17048644
6	0xc13e5222	-11.895052
7	0x41b3ac07	22.458998
8	0x420097a6	32.148094
9	0x41af4d60	21.91278
10	0x42000152	32.00129
11	0xbe8821ac	-0.2658819
12	0x3dd20952	0.10255684
13	0xc142ae8c	-12.167614
14	0x41b1a43d	22.205194
15	0x4201b351	32.425114
16	0x41b269b1	22.301607
17	0x420103d0	32.253723
18	0xbd64d8bb	-0.055870753
19	0x3d80e177	0.06293004
20	0xc149f548	-12.622383
21	0xbeb76539	-0.35819414
22	0xbe08d83a	-0.13363734
23	0x3d745f5b	0.05966125
24	0x3e78dad2	0.24302223
25	0xbebe8134	-0.3720795
26	0x3dbf41a3	0.09338691
27	0x3d94880d	0.07252512
28	0x41aeb1c5	21.836802
29	0x41fec258	31.844894
30	0x41af83af	21.939299
31	0x42009f32	32.155464
32	0xbe64f703	-0.22359852
33	0x3da8f5da	0.082500175
34	0xc13dec9b	-11.870265
35	0x41b18370	22.189178
36	0x41ffda45	31.981577
37	0x41b29147	22.320936
38	0x42019a88	32.40091
39	0x3e536653	0.20644502
40	0x3eb3c659	0.35112265
41	0xc1445a04	-12.271976
42	0x41ad2367	21.642286
43	0x41ff5800	31.917969
44	0x41b0f49c	22.119438
45	0x41ffbfbe	31.968624
46	0xbdfee69f	-0.12446331
47	0x3e891bf0	0.26779127
48	0xc140c35d	-12.047696
49	0x3e89ed8a	0.2693904
50	0xbe0964f3	-0.13417415
51	0x3c8e7dd3	0.017393982
52	0xbdb01711	-0.085981496
53	0x3e57ff75	0.21093543
54	0x3e9b72d2	0.30361038
55	0xbe7f4461	-0.24928428

bias f4 [8]
0	0x41b32197	22.391401
1	0x41b14b28	22.161697
2	0x41b074d4	22.057045
3	0xbe10fcb0	-0.14158893
4	0x41ab47d1	21.410067
5	0x41b25f4b	22.29653
6	0x41b21ad6	22.263103
7	0xbea23122	-0.3167811

weight f4 [8, 8]
0	0xbea9d293	-0.33168468
1	0x3da4a6e1	0.08039642
2	0xbe425bc1	-0.18980314
3	0xba91a015	-0.001111033
4	0xbe80c5d2	-0.25150925
5	0xbea12024	-0.31469834
6	0xbe29ac7a	-0.16569701
7	0x3eb2138e	0.34780544
8	0x41aebd8d	21.842554
9	0x41b13986	22.153088
10	0x41afa42f	21.955168
11	0x3e1d55af	0.15364717
12	0x41b18312	22.189
13	0x41b1aaca	22.208393
14	0x41ae856c	21.815147
15	0x3e724239	0.23658074
16	0x3d992b8c	0.07479009
17	0xbe0db47a	-0.13838378
18	0x3e0d969f	0.13826989
19	0x3e73171c	0.23739284
20	0x3d8f2b0f	0.06990635
21	0xbea6c087	-0.32568762
22	0x3e253a39	0.16135491
23	0x3d02bf2a	0.03192059
24	0x41b452a4	22.540352
25	0x41b2575d	22.292658
26	0x41b0458f	22.033964
27	0xbc4ec603	-0.012620452
28	0x41b30f65	22.382517
29	0x41b134fd	22.150873
30	0x41b1fedd	22.249445
31	0x3e2f45bf	0.1711645
32	0x41b3aab1	22.458345
33	0x41b3f0bd	22.492548
34	0x41ae9dc0	21.827026
35	0x3dfddc81	0.123955734
36	0x41b2e7f9	22.363268
37	0x41b27a7a	22.309803
38	0x41af44d5	21.90861
39	0xbe839a42	-0.25703627
40	0x41b1554d	22.16665
41	0x41b4d9fb	22.606436
42	0x41b06ebf	22.054075
43	0xbd021d1b	-0.03176604
44	0x41b331ad	22.399256
45	0x41b3c74f	22.472319
46	0x41ae8044	21.81263
47	0xbe946aa2	-0.28987604
48	0x41b1642e	22.173916
49	0x41b31e11	22.38968
50	0x41ad651f	21.674376
51	0xbdf79e82	-0.1209078
52	0x41b2a37d	22.329828
53	0x41aebc4a	21.841938
54	0x41afedd1	21.991121
55	0xbe9ab61a	-0.30217057
56	0x41b55140	22.664673
57	0x41b2f361	22.368837
58	0x41b28564	22.315132
59	0x3d2b5318	0.04182729
60	0x41b366f6	22.425274
61	0x41b24b5a	22.286793
62	0x41b30df9	22.381823
63	0xbdd86e2b	-0.10567888

bias f4 [8]
0	0xbe8506cf	-0.25981757
1	0x4198a521	19.08063
2	0xbed3f885	-0.41400543
3	0x41986d96	19.053509
4	0x419900da	19.125416
5	0x4198dac1	19.106813
6	0x41996c7d	19.177973
7	0x4198fa8e	19.122341

weight f4 [1, 8]
0	0xbdccf550	-0.10007727
1	0x41b36467	22.424025
2	0xbdb99b3a	-0.0906281
3	0x41b64c21	22.787172
4	0x41b40b2d	22.505457
5	0x41b2d727	22.355055
6	0x41b2a71c	22.331596
7	0x41b2584a	22.29311
