src/model/saved_routes_part_3/rush/weights/t_net_start_weights.pt (torch, 8927 bytes, 5 tensors)

weight f4 [8, 7]
000000 c7 95 fc 40 ac a8 f4 40 6b 91 f2 40 4e e2 f2 40
       7.8932834 7.64559 7.580251 7.590125
000010 9c ea bf be ff 93 2e 3e fd 19 b4 3e 56 2c 04 41
       -0.3748368 0.17048644 0.35176077 8.260824
000020 3c 34 f8 40 9d d4 f6 40 89 31 f4 40 ac 21 88 be
       7.7563763 7.713454 7.631047 -0.2658819
000030 52 09 d2 3d e0 ec a2 3d e9 86 ff 40 a7 41 00 41
       0.10255684 0.079553366 7.9852185 8.016028
000040 b7 49 01 41 0d ba fb 40 bb d8 64 bd 77 e1 80 3d
       8.080497 7.8664613 -0.055870753 0.06293004
000050 c6 2b c1 be 39 65 b7 be 3a d8 08 be 5b 5f 74 3d
       -0.3772871 -0.35819414 -0.13363734 0.05966125
000060 d2 da 78 3e 34 81 be be a3 41 bf 3d 0d 88 94 3d
       0.24302223 -0.3720795 0.09338691 0.07252512
000070 b4 54 f4 40 36 68 ee 40 1d 93 f7 40 23 08 f9 40
       7.6353397 7.450221 7.736708 7.7822433
000080 03 f7 64 be da f5 a8 3d 03 f1 c0 3e 00 6f ff 40
       -0.22359852 0.082500175 0.37683877 7.9823
000090 09 a8 f2 40 7f ce 01 41 17 62 00 41 53 66 53 3e
       7.583012 8.112914 8.023948 0.20644502
0000a0 59 c6 b3 3e 0e 73 d2 bc 8d 95 ed 40 15 56 f0 40
       0.35112265 -0.025689628 7.4245057 7.510508
0000b0 0d d1 fc 40 b8 a7 f2 40 9f e6 fe bd f0 1b 89 3e
       7.900519 7.5829735 -0.12446331 0.26779127
0000c0 91 74 4a 3e 8a ed 89 3e f3 64 09 be d3 7d 8e 3c
       0.19771029 0.2693904 -0.13417415 0.017393982
0000d0 11 17 b0 bd 75 ff 57 3e d2 72 9b 3e 61 44 7f be
       -0.085981496 0.21093543 0.30361038 -0.24928428

bias f4 [8]
000000 6d 01 03 41 56 ca fe 40 7b be fa 40 b0 fc 10 be
       8.187848 7.962199 7.835752 -0.14158893
000010 0c a2 e6 40 be 69 01 41 43 b4 00 41 22 31 a2 be
       7.207281 8.088316 8.044009 -0.3167811

weight f4 [8, 8]
000000 93 d2 a9 be e1 a6 a4 3d c1 5b 42 be 15 a0 91 ba
       -0.33168468 0.08039642 -0.18980314 -0.001111033
000010 d2 c5 80 be 24 20 a1 be 7a ac 29 be 8e 13 b2 3e
       -0.25150925 -0.31469834 -0.16569701 0.34780544
000020 ae 6f f3 40 01 86 fd 40 7e 31 f7 40 af 55 1d 3e
       7.607383 7.922608 7.7247915 0.15364717
000030 7c e3 fd 40 0d 73 ff 40 1b 66 f2 40 39 42 72 3e
       7.934019 7.9827943 7.574964 0.23658074
000040 8c 2b 99 3d 7a b4 0d be 9f 96 0d 3e 1c 17 73 3e
       0.07479009 -0.13838378 0.13826989 0.23739284
000050 0f 2b 8f 3d 87 c0 a6 be 39 3a 25 3e 2a bf 02 3d
       0.06990635 -0.32568762 0.16135491 0.03192059
000060 7e 30 05 41 74 4d 01 41 72 54 fa 40 03 c6 4e bc
       8.324339 8.081409 7.8228083 -0.012620452
000070 11 59 02 41 d5 38 fe 40 61 74 00 41 bf 45 2f 3e
       8.146745 7.9444375 8.028413 0.1711645
000080 fa a5 03 41 89 45 04 41 02 40 f3 40 81 dc fd 3d
       8.228022 8.266976 7.6015635 0.123955734
000090 a3 cf 01 41 a9 6c 01 41 47 8b f5 40 42 9a 83 be
       8.113193 8.089028 7.6732516 -0.25703627
0000a0 27 b7 fd 40 47 f8 05 41 50 44 fa 40 1b 1d 02 bd
       7.9286075 8.373115 7.820839 -0.03176604
0000b0 57 43 02 41 d6 e6 03 41 b5 39 f2 40 a2 6a 94 be
       8.14144 8.243856 7.5695443 -0.28987604
0000c0 8e e3 fd 40 d9 78 02 41 88 0e ee 40 82 9e f7 bd
       7.9340277 8.154504 7.439274 -0.1209078
0000d0 4b 1f 01 41 f5 91 f3 40 99 e0 f7 40 1a b6 9a be
       8.07014 7.611567 7.7461667 -0.30217057
0000e0 2a c8 06 41 b4 1f 02 41 2f 44 01 41 18 53 2b 3d
       8.423868 8.13274 8.079146 0.04182729
0000f0 96 a2 02 41 94 e3 00 41 13 2d 02 41 2b 6e d8 bd
       8.164694 8.055561 8.136004 -0.10567888

bias f4 [8]
000000 cf 06 85 be 83 d2 b9 40 85 f8 d3 be 41 77 b9 40
       -0.25981757 5.806947 -0.41400543 5.7958074
000010 f6 62 bb 40 36 96 ba 40 c4 cf bc 40 b0 02 bb 40
       5.85583 5.8308363 5.900362 5.844078

weight f4 [1, 8]
000000 50 f5 cc bd 6d af 02 41 3a 9b b9 bd 9c b9 08 41
       -0.10007727 8.167829 -0.0906281 8.545315
000010 13 2a 04 41 ec c5 01 41 b1 3b 01 41 2d e8 00 41
       8.260272 8.110821 8.077073 8.056684
