src/model/saved_routes_part_2/weights/e_net_a_weights.pt (torch, 13286 bytes, 8 tensors)

weight f4 [8, 2]
000000 79 e6 4e 3f bb e7 23 3e 76 af f6 bf 34 4e c4 3f
       0.80820423 0.16006367 -1.9272296 1.5336366
000010 8e cf fa be b4 a1 8b be 5e 9e eb c0 fb 68 de c0
       -0.48986477 -0.27271807 -7.363082 -6.950315
000020 c6 d7 51 c0 d4 01 71 bf e7 a3 8b bf ab 99 c2 3f
       -3.2787948 -0.94143414 -1.0909394 1.5203146
000030 5d 4f c7 40 e4 41 ef 40 81 73 11 41 7a 00 eb 40
       6.228438 7.4767933 9.090699 7.343808

weight f4 [1, 2]
000000 fb 37 b2 3e 80 65 e8 3f
       0.34808335 1.8155975

weight f4 [8, 7]
000000 37 10 9c 3f 6a 01 12 40 67 b1 97 3f ec a4 82 40
       1.2192448 2.2813363 1.1851014 4.082632
000010 6e b7 27 3e f9 39 e0 c0 85 f4 c7 c0 65 67 c1 be
       0.16378567 -7.0070767 -6.2485986 -0.37774196
000020 2d ca 38 bd 0b 84 7b 3e 01 89 6f bd c1 74 a2 be
       -0.045114685 0.24562089 -0.058480266 -0.317297
000030 5b 98 bc 3d 2c 9f 94 be 27 16 14 40 0b 61 29 40
       0.09208747 -0.29027689 2.313852 2.646548
000040 20 8e 20 40 db 07 0d 40 2a d1 8b 3e c1 f1 c5 40
       2.5086746 2.2036045 0.27308017 6.185761
000050 b3 fe b3 40 73 00 27 40 d1 20 34 40 0c 91 59 40
       5.624841 2.6094024 2.814503 3.399478
000060 f6 7e 52 40 f1 44 23 be 55 ac c6 40 98 f6 ba 40
       3.288999 -0.15944268 6.2085366 5.842602
000070 e4 e4 41 3e 6a c4 72 be dd c7 74 bd 67 50 7b 3d
       0.18934971 -0.23707739 -0.059760917 0.061355975
000080 10 96 b0 bd 76 9c 1f bd 15 eb 48 3e 3d 38 3b 40
       -0.08622372 -0.038967572 0.19620927 2.9253075
000090 8d dc 5b 40 c2 19 66 40 f1 21 52 40 7d 57 dc 3d
       3.4353364 3.5953221 3.2833216 0.107588746
0000a0 d5 47 d5 40 56 6c c5 40 0a 30 7e 3e 70 e5 c3 bd
       6.6650186 6.1694746 0.24823013 -0.09565246
0000b0 48 73 a0 3e 0a ea a8 3e d0 0e 96 be c3 26 16 be
       0.31337953 0.32991058 -0.29308176 -0.14663224
0000c0 1f a4 f3 bd 96 1f 5e be 0a 7b 44 be 9d 15 b3 be
       -0.11896538 -0.21691737 -0.1918756 -0.34977427
0000d0 30 47 b3 3c 73 5d 88 be 7c 5a 13 3e e5 48 8b be
       0.02188453 -0.26633796 0.14389986 -0.27204052

bias f4 [8]
000000 6e bc 26 40 14 33 02 bd 8c df 13 40 4d 9c 41 40
       2.6052508 -0.031786993 2.3105192 3.0251648
000010 af f2 0b 3d 82 06 4f 40 75 08 53 3e a7 2c a6 3e
       0.034166988 3.2347722 0.20608695 0.32455942

weight f4 [8, 8]
000000 6c e2 73 40 5c 80 c6 bd 61 ce f3 3f 9e 6a 02 40
       3.8106947 -0.09692451 1.9047357 2.0377574
000010 c0 50 01 3e c0 a6 dd 3f eb de 19 be 17 46 b5 bd
       0.1262846 1.7316513 -0.15026443 -0.08851259
000020 bb c8 65 be f7 02 fc 3d 23 74 a2 be f9 c8 87 3e
       -0.22439854 0.12305253 -0.3172923 0.26520517
000030 02 b9 8c be f7 bc bf bc 87 42 e9 3d be 59 7b bd
       -0.274849 -0.023405535 0.11389642 -0.06136488
000040 de 42 83 40 42 6c 06 3e a2 e8 fe 3f 28 42 e8 3f
       4.1019125 0.13127235 1.9914744 1.8145189
000050 d1 35 59 bc b3 5b 0f 40 cd 74 a1 3d 87 15 a4 be
       -0.01325746 2.2399719 0.07883606 -0.32047674
000060 24 0b 73 be 41 13 bc bc 9b e3 b3 be 4f fd 7f bd
       -0.23734719 -0.0229584 -0.35134587 -0.062497433
000070 25 79 89 3d dd c7 73 3e a2 d1 d7 3d 92 fd 82 be
       0.067125596 0.2380671 0.10538031 -0.25584084
000080 72 66 82 bd f2 f7 36 bd d1 3f 33 3e ad bc 75 3c
       -0.06367196 -0.044670053 0.17504813 0.014998597
000090 9d 69 39 be bb 13 e7 be 6a ec b1 3d ed 60 7d be
       -0.18106695 -0.4513224 0.086876705 -0.24744006
0000a0 27 73 cb c0 b0 b1 9e be 09 e8 f3 3f 13 37 29 40
       -6.3578067 -0.3099494 1.9055187 2.6439865
0000b0 95 3e 8b 3e 24 e0 10 40 0c ad 5e 3d 00 66 8b 3e
       0.27196184 2.2636805 0.05436425 0.27226257
0000c0 86 66 bb c0 d7 6f 98 3e 23 93 58 40 61 0c 72 40
       -5.856265 0.29772827 3.3839805 3.7820055
0000d0 1d 08 85 3e 81 9c 83 40 af b5 7c 3d 21 0c 44 3e
       0.25982752 4.1128545 0.061696704 0.19145252
0000e0 c2 06 91 40 87 3d c0 bd 26 b1 01 40 3d ea fb 3f
       4.532075 -0.093867354 2.0264373 1.9680859
0000f0 4f 54 2f 3a 57 94 d5 3f 8f ce a8 3e 30 c2 a2 3e
       0.0006688283 1.6685895 0.32970092 0.31788778

bias f4 [8]
000000 ae 42 4f 40 bd eb cd 3d 2f cc 0d 40 d4 15 b5 be
       3.2384448 0.10054729 2.2155874 -0.35368216
000010 91 72 3e bd fb ad 33 bf 50 e6 33 40 d8 04 fc 3f
       -0.046495978 -0.7018735 2.8109322 1.9688978

weight f4 [1, 8]
000000 a5 3d 9d 40 32 36 85 3e ec 31 18 40 75 09 17 3e
       4.913775 0.2601791 2.378047 0.14749701
000010 b1 a0 47 3d 75 63 44 c0 7b 56 88 c0 52 cf b3 40
       0.04873723 -3.0685704 -4.2605567 5.6190577

weight f4 [1, 2]
000000 b9 47 ad bf 82 c2 9f c0
       -1.3537513 -4.9924936
