src/model/saved_routes_part_2/weights/e_net_start_weights_old.pt (torch, 13286 bytes, 8 tensors)

weight f4 [8, 2]
0	0x3f4ee679	0.80820423
1	0x3e23e7bb	0.16006367
2	0xbf706680	-0.939064
3	0x402105cd	2.515979
4	0x3ef4d641	0.47819713
5	0x3f308faf	0.68969244
6	0xc0f7e27f	-7.7463984
7	0xc0eaa2fc	-7.3323956
8	0xc0203856	-2.5034385
9	0xbe2d7d86	-0.16942415
10	0xbf8ba3e7	-1.0909394
11	0x3fc299ab	1.5203146
12	0x40b64336	5.6957045
13	0x40ddef7b	6.9354835
14	0x411a4561	9.641938
15	0x40fca212	7.894784

weight f4 [1, 2]
0	0x3ee9a722	0.45635325
1	0x3f85acf2	1.0443404

weight f4 [8, 7]
0	0x3f24d4f5	0.64387447
1	0x3fe11a16	1.7586086
2	0x3e75ca4e	0.24002954
3	0x40654db1	3.582867
4	0x3e27b76e	0.16378567
5	0xc0cfa823	-6.4892745
6	0xc0c4e3f7	-6.1528277
7	0xbec16765	-0.37774196
8	0xbd38ca2d	-0.045114685
9	0x3e7b840b	0.24562089
10	0xbd6f8901	-0.058480266
11	0xbea274c1	-0.317297
12	0x3dbc985b	0.09208747
13	0xbe949f2c	-0.29027689
14	0x406a9fb2	3.665997
15	0x40824012	4.070321
16	0x40627d7e	3.5389094
17	0x4065bc76	3.5896277
18	0x3e8bd12a	0.27308017
19	0x40d8980d	6.768561
20	0x40cf9981	6.4874883
21	0x4082544e	4.072791
22	0x408b2d46	4.3492765
23	0x408f7160	4.4825897
24	0x409934a2	4.787675
25	0xbe2344f1	-0.15944268
26	0x40dc4f87	6.884708
27	0x40d9c782	6.805604
28	0x3e41e4e4	0.18934971
29	0xbe72c46a	-0.23707739
30	0xbd74c7dd	-0.059760917
31	0x3d7b5067	0.061355975
32	0xbdb09610	-0.08622372
33	0xbd1f9c76	-0.038967572
34	0x3e48eb15	0.19620927
35	0x408de5a3	4.434282
36	0x40a0724b	5.013952
37	0x40968827	4.70412
38	0x409a73d9	4.8266416
39	0x3ddc577d	0.107588746
40	0x40ec0e12	7.3767176
41	0x40e580e5	7.171984
42	0x3e7e300a	0.24823013
43	0xbdc3e570	-0.09565246
44	0x3ea07348	0.31337953
45	0x3ea8ea0a	0.32991058
46	0xbe960ed0	-0.29308176
47	0xbe1626c3	-0.14663224
48	0xbdf3a41f	-0.11896538
49	0xbe5e1f96	-0.21691737
50	0xbe447b0a	-0.1918756
51	0xbeb3159d	-0.34977427
52	0x3cb34730	0.02188453
53	0xbe885d73	-0.26633796
54	0x3e135a7c	0.14389986
55	0xbe8b48e5	-0.27204052

bias f4 [8]
0	0x4005ba6e	2.0895038
1	0xbd023314	-0.031786993
2	0x406dd913	3.7163742
3	0x409163be	4.5434256
4	0x3d0bf2af	0.034166988
5	0x4099857a	4.7975435
6	0x3e530875	0.20608695
7	0x3ea62ca7	0.32455942

weight f4 [8, 8]
0	0x4042286c	3.0337172
1	0xbdc6805c	-0.09692451
2	0x3c9a3833	0.018825626
3	0x3e197c69	0.14988865
4	0x3e0150c0	0.1262846
5	0xbe270991	-0.16312243
6	0xbe19deeb	-0.15026443
7	0xbdb54617	-0.08851259
8	0xbe65c8bb	-0.22439854
9	0x3dfc02f7	0.12305253
10	0xbea27423	-0.3172923
11	0x3e87c8f9	0.26520517
12	0xbe8cb902	-0.274849
13	0xbcbfbcf7	-0.023405535
14	0x3de94287	0.11389642
15	0xbd7b59be	-0.06136488
16	0x40501458	3.2512417
17	0x3e066c42	0.13127235
18	0xbd8d2d84	-0.06893447
19	0xbe7cb37e	-0.24677846
20	0xbc5935d1	-0.01325746
21	0x3e319a1b	0.17343943
22	0x3da174cd	0.07883606
23	0xbea41587	-0.32047674
24	0xbe6eadfb	-0.23308556
25	0xbcbc1341	-0.0229584
26	0xbe9feccc	-0.3123535
27	0xbcbc49ca	-0.022984404
28	0x3d897925	0.067125596
29	0x3e8e953d	0.27848235
30	0x3dd7d1a2	0.10538031
31	0xbe82fd92	-0.25584084
32	0xbd826672	-0.06367196
33	0xbd36f7f2	-0.044670053
34	0x3e333fd1	0.17504813
35	0x3c75bcad	0.014998597
36	0xbe39699d	-0.18106695
37	0xbee713bb	-0.4513224
38	0x3db1ec6a	0.086876705
39	0xbe7d60ed	-0.24744006
40	0xc0b365c4	-5.6061726
41	0xbe9eb1b0	-0.3099494
42	0x406a14e4	3.657525
43	0x408cc132	4.3985834
44	0x3e8b3e95	0.27196184
45	0x4080d4b1	4.0259633
46	0x3d5ead0c	0.05436425
47	0x3e8b6600	0.27226257
48	0xc0a356ae	-5.104331
49	0x3e986fd7	0.29772827
50	0x40a4c6c0	5.1492615
51	0x40b19810	5.5498123
52	0x3e85081d	0.25982752
53	0x40bc6ce1	5.888291
54	0x3d7cb5af	0.061696704
55	0x3e440c21	0.19145252
56	0x407092a5	3.7589505
57	0xbdc03d87	-0.093867354
58	0x3e1bebe3	0.15226702
59	0x3dbc32ea	0.091893986
60	0x3a2f544f	0.0006688283
61	0xbe5bbec3	-0.21459489
62	0x3ea8ce8f	0.32970092
63	0x3ea2c230	0.31788778

bias f4 [8]
0	0x3fa97bf4	1.3240952
1	0x3dcdebbd	0.10054729
2	0x3e55c2dd	0.20875116
3	0xbeb47f7a	-0.35253507
4	0xbd3e7291	-0.046495978
5	0x3f8a90c5	1.082543
6	0x4093d13d	4.619292
7	0x3d71d5d4	0.059041813

weight f4 [1, 8]
0	0x4032aadf	2.7916791
1	0x3e853632	0.2601791
2	0x3e7f21c1	0.2491522
3	0x3e176420	0.14784288
4	0x3d47a0b1	0.04873723
5	0xc0969b43	-4.706453
6	0xc0bf2623	-5.9734054
7	0x40601920	3.5015335

weight f4 [1, 2]
0	0x3f143fdf	0.5790996
1	0xc0c765eb	-6.231191
