src/model/saved_routes_part_2/weights/t_net_a_weights.pt (torch, 8927 bytes, 5 tensors)

weight f4 [8, 7]
0	0x411eb9d7	9.920371
1	0x417009e9	15.002419
2	0x41194a76	9.580679
3	0x416f1dd2	14.94478
4	0xbebfea9c	-0.3748368
5	0x3e2e93ff	0.17048644
6	0x3eb419fd	0.35176077
7	0x4124926c	10.285748
8	0x4171c73e	15.111143
9	0x411b634c	9.711742
10	0x416fbd22	14.983675
11	0xbe8821ac	-0.2658819
12	0x3dd20952	0.10255684
13	0x3da2ece0	0.079553366
14	0x41206e23	10.026889
15	0x41760def	15.378402
16	0x4121875d	10.095548
17	0x4173a01a	15.226587
18	0xbd64d8bb	-0.055870753
19	0x3d80e177	0.06293004
20	0xbec12bc6	-0.3772871
21	0xbeb76539	-0.35819414
22	0xbe08d83a	-0.13363734
23	0x3d745f5b	0.05966125
24	0x3e78dad2	0.24302223
25	0xbebe8134	-0.3720795
26	0x3dbf41a3	0.09338691
27	0x3d94880d	0.07252512
28	0x411a8827	9.65824
29	0x416cf31c	14.809353
30	0x411bba4c	9.732983
31	0x41723a3b	15.139216
32	0xbe64f703	-0.22359852
33	0x3da8f5da	0.082500175
34	0x3ec0f103	0.37683877
35	0x41203a7d	10.014279
36	0x416f0bdb	14.940394
37	0x4121e467	10.118262
38	0x417610fa	15.379145
39	0x3e536653	0.20644502
40	0x3eb3c659	0.35112265
41	0xbcd2730e	-0.025689628
42	0x4117695d	9.463223
43	0x416df81f	14.873076
44	0x411e99ea	9.912577
45	0x416f17b4	14.943287
46	0xbdfee69f	-0.12446331
47	0x3e891bf0	0.26779127
48	0x3e4a7491	0.19771029
49	0x3e89ed8a	0.2693904
50	0xbe0964f3	-0.13417415
51	0x3c8e7dd3	0.017393982
52	0xbdb01711	-0.085981496
53	0x3e57ff75	0.21093543
54	0x3e9b72d2	0.30361038
55	0xbe7f4461	-0.24928428

bias f4 [8]
0	0x41230322	10.188265
1	0x411f5e0c	9.960461
2	0x411d9cc4	9.850773
3	0xbe10fcb0	-0.14158893
4	0x4113419b	9.203517
5	0x41217f8d	10.09364
6	0x4120e592	10.056047
7	0xbea23122	-0.3167811

weight f4 [8, 8]
0	0xbea9d293	-0.33168468
1	0x3da4a6e1	0.08039642
2	0xbe425bc1	-0.18980314
3	0xba91a015	-0.001111033
4	0xbe80c5d2	-0.25150925
5	0xbea12024	-0.31469834
6	0xbe29ac7a	-0.16569701
7	0x3eb2138e	0.34780544
8	0x41218da8	10.097084
9	0x41263294	10.387348
10	0x41239279	10.22326
11	0x3e1d55af	0.15364717
12	0x4127ed8f	10.495498
13	0x41273726	10.450964
14	0x41218be2	10.096651
15	0x3e724239	0.23658074
16	0x3d992b8c	0.07479009
17	0xbe0db47a	-0.13838378
18	0x3e0d969f	0.13826989
19	0x3e73171c	0.23739284
20	0x3d8f2b0f	0.06990635
21	0xbea6c087	-0.32568762
22	0x3e253a39	0.16135491
23	0x3d02bf2a	0.03192059
24	0x412cc5dc	10.7983055
25	0x41287c76	10.530386
26	0x4124e3b3	10.305591
27	0xbc4ec603	-0.012620452
28	0x412b14e7	10.692603
29	0x4126597d	10.396848
30	0x41288d15	10.534444
31	0x3e2f45bf	0.1711645
32	0x412b6b67	10.713721
33	0x412ba4c5	10.727727
34	0x41218966	10.096045
35	0x3dfddc81	0.123955734
36	0x412abb2d	10.670697
37	0x4128d9f4	10.553211
38	0x41230e4d	10.190991
39	0xbe839a42	-0.25703627
40	0x4126bb78	10.420769
41	0x412d71ec	10.840313
42	0x412525df	10.321746
43	0xbd021d1b	-0.03176604
44	0x412b4904	10.705326
45	0x412b6e88	10.714485
46	0x41217fb1	10.093675
47	0xbe946aa2	-0.28987604
48	0x4126d7c0	10.427673
49	0x4129f8b1	10.623216
50	0x411f111e	9.941679
51	0xbdf79e82	-0.1209078
52	0x412a2b2b	10.635539
53	0x412156cd	10.083692
54	0x41245954	10.271809
55	0xbe9ab61a	-0.30217057
56	0x412eb18c	10.918346
57	0x4129a2e0	10.602264
58	0x41295166	10.582373
59	0x3d2b5318	0.04182729
60	0x412bb1bd	10.730893
61	0x412874d0	10.528519
62	0x412a9958	10.662437
63	0xbdd86e2b	-0.10567888

bias f4 [8]
0	0xbe8506cf	-0.25981757
1	0x40efd5af	7.4948344
2	0xbed3f885	-0.41400543
3	0x40eedd83	7.46454
4	0x40f13ed1	7.538918
5	0x40f0b27d	7.521788
6	0x40f2fa59	7.59306
7	0x40f136bb	7.537931

weight f4 [1, 8]
0	0xbdccf550	-0.10007727
1	0x412ac8a2	10.673983
2	0xbdb99b3a	-0.0906281
3	0x4130a344	11.03986
4	0x412c1ce1	10.7570505
5	0x4129b502	10.606691
6	0x41294f47	10.581855
7	0x4128bee9	10.546609
