src/model/saved_routes_part_1/weights_no_rush/e_net_a_weights.pt (torch, 13286 bytes, 8 tensors)

weight f4 [8, 2]
0.51703537 -0.29513618 2.4717221 6.004891 -4.648451 -4.480645 -7.363082 -6.950315
-3.7095015 -1.3702775 -1.0909394 1.5203146 5.83061 7.21657 3.3642786 1.5255413
00000000: 6e5c 043f 171c 97be b230 1e40 1128 c040
00000010: 1cc0 94c0 7261 8fc0 5e9e ebc0 fb68 dec0
00000020: 7968 6dc0 4165 afbf e7a3 8bbf ab99 c23f
00000030: 5b94 ba40 24ee e640 5750 5740 f044 c33f

weight f4 [1, 2]
-0.22618178 0.64927363
00000000: 329c 67be cc36 263f

weight f4 [8, 7]
0.62805617 3.104534 0.13982275 1.8358692 0.16378567 -10.496916 -11.483662 -0.37774196
-0.045114685 0.24562089 -0.058480266 -0.317297 0.09208747 -0.29027689 3.8204143 3.6096995
3.8232584 6.3073506 0.27308017 11.722715 12.74386 4.21505 3.8994985 4.7353764
7.483888 -0.15944268 11.793775 13.004141 0.18934971 -0.23707739 -0.059760917 0.061355975
-0.08622372 -0.038967572 0.19620927 4.585719 4.5716543 4.9531665 7.501857 0.107588746
12.2474985 13.320993 0.24823013 -0.09565246 0.31337953 0.32991058 -0.29308176 -0.14663224
-0.11896538 -0.21691737 -0.1918756 -0.34977427 0.02188453 -0.26633796 0.14389986 -0.27204052
00000000: 4ac8 203f afb0 4640 b22d 0f3e c3fd ea3f
00000010: 6eb7 273e 5ef3 27c1 14bd 37c1 6567 c1be
00000020: 2dca 38bd 0b84 7b3e 0189 6fbd c174 a2be
00000030: 5b98 bc3d 2c9f 94be ab81 7440 5105 6740
00000040: 44b0 7440 d1d5 c940 2ad1 8b3e 3e90 3b41
00000050: dae6 4b41 b1e1 8640 6291 7940 3488 9740
00000060: 037c ef40 f144 23be 4db3 3c41 f610 5041
00000070: e4e4 413e 6ac4 72be ddc7 74bd 6750 7b3d
00000080: 1096 b0bd 769c 1fbd 15eb 483e 36be 9240
00000090: fe4a 9240 5780 9e40 360f f040 7d57 dc3d
000000a0: c1f5 4341 ca22 5541 0a30 7e3e 70e5 c3bd
000000b0: 4873 a03e 0aea a83e d00e 96be c326 16be
000000c0: 1fa4 f3bd 961f 5ebe 0a7b 44be 9d15 b3be
000000d0: 3047 b33c 735d 88be 7c5a 133e e548 8bbe

bias f4 [8]
1.2731584 -0.031786993 5.5735784 6.3813477 0.034166988 6.618276 0.20608695 0.32455942
00000000: dbf6 a23f 1433 02bd c15a b240 0034 cc40
00000010: aff2 0b3d ebc8 d340 7508 533e a72c a63e

weight f4 [8, 8]
6.9048314 -0.09692451 -0.6204973 -0.35569778 0.1262846 -0.35214534 -0.15026443 -0.08851259
-0.22439854 0.12305253 -0.3172923 0.26520517 -0.274849 -0.023405535 0.11389642 -0.06136488
7.3950057 0.13127235 -0.7176782 -0.7525064 -0.01325746 0.0008570527 0.07883606 -0.32047674
-0.23308556 -0.0229584 -0.3123535 -0.022984404 0.067125596 0.27848235 0.10538031 -0.25584084
-0.06367196 -0.044670053 0.17504813 0.014998597 -0.18106695 -0.4513224 0.086876705 -0.24744006
-9.010684 -0.3099494 6.317771 6.9640975 0.27196184 6.3249784 0.05436425 0.27226257
-8.471341 0.29772827 7.754549 8.061911 0.25982752 8.138581 0.061696704 0.19145252
7.600188 -0.093867354 -0.53029263 -0.46103096 0.0006688283 -0.45687962 0.32970092 0.31788778
00000000: 61f4 dc40 5c80 c6bd e9d8 1ebf 051e b6be
00000010: c050 013e 654c b4be ebde 19be 1746 b5bd
00000020: bbc8 65be f702 fc3d 2374 a2be f9c8 873e
00000030: 02b9 8cbe f7bc bfbc 8742 e93d be59 7bbd
00000040: e3a3 ec40 426c 063e c2b9 37bf 42a4 40bf
00000050: d135 59bc d5ab 603a cd74 a13d 8715 a4be
00000060: fbad 6ebe 4113 bcbc ccec 9fbe ca49 bcbc
00000070: 2579 893d 3d95 8e3e a2d1 d73d 92fd 82be
00000080: 7266 82bd f2f7 36bd d13f 333e adbc 753c
00000090: 9d69 39be bb13 e7be 6aec b13d ed60 7dbe
000000a0: c32b 10c1 b0b1 9ebe 2e2b ca40 e3d9 de40
000000b0: 953e 8b3e 3966 ca40 0cad 5e3d 0066 8b3e
000000c0: 9d8a 07c1 d76f 983e 4425 f840 96fd 0041
000000d0: 1d08 853e a137 0241 afb5 7c3d 210c 443e
000000e0: bd34 f340 873d c0bd 42c1 07bf 400c ecbe
000000f0: 4f54 2f3a 20ec e9be 8fce a83e 30c2 a23e

bias f4 [8]
1.8550421 0.10054729 0.84559643 -0.35253507 -0.046495978 2.7079847 6.1992335 0.5177467
00000000: 0572 ed3f bdeb cd3d 0279 583f 7a7f b4be
00000010: 9172 3ebd 9f4f 2d40 1f60 c640 0c8b 043f

weight f4 [1, 8]
6.191327 0.2601791 3.6046472 0.14784288 0.04873723 -9.622276 -9.865261 6.922865
00000000: 5a1f c640 3236 853e 8ab2 6640 2064 173e
00000010: b1a0 473d d8f4 19c1 1cd8 1dc1 1c88 dd40

weight f4 [1, 2]
-0.106847 -12.32206
00000000: 9ad2 dabd 2827 45c1
