src/model/saved_routes_part_1/weights_no_rush/t_net_start_weights_old.pt (torch, 8927 bytes, 5 tensors)

weight f4 [8, 7]
0	0x3fe04e9b	1.7523988
1	0x3fc0a29b	1.5049623
2	0x3fb839d3	1.4392647
3	0x3fb9abf2	1.4505599
4	0xbebfea9c	-0.3748368
5	0x3e2e93ff	0.17048644
6	0x3eb419fd	0.35176077
7	0x40090190	2.1407204
8	0x3fd179d5	1.6365305
9	0x3fcbefb7	1.593253
10	0x3fc19056	1.5122173
11	0xbe8821ac	-0.2658819
12	0x3dd20952	0.10255684
13	0x3da2ece0	0.079553366
14	0x3fe10c0e	1.7581804
15	0x3fe507dc	1.7893023
16	0x3fed3a48	1.8533411
17	0x3fd20ba2	1.64098
18	0xbd64d8bb	-0.055870753
19	0x3d80e177	0.06293004
20	0xbec12bc6	-0.3772871
21	0xbeb76539	-0.35819414
22	0xbe08d83a	-0.13363734
23	0x3d745f5b	0.05966125
24	0x3e78dad2	0.24302223
25	0xbebe8134	-0.3720795
26	0x3dbf41a3	0.09338691
27	0x3d94880d	0.07252512
28	0x3fba90be	1.4575422
29	0x3fa2e7f2	1.2727034
30	0x3fc786fa	1.5588067
31	0x3fcd8b9f	1.6058234
32	0xbe64f703	-0.22359852
33	0x3da8f5da	0.082500175
34	0x3ec0f103	0.37683877
35	0x3fe9f564	1.8278012
36	0x3fb6e2a2	1.4287913
37	0x3ffaaa17	1.9583157
38	0x3fef76f5	1.8708178
39	0x3e536653	0.20644502
40	0x3eb3c659	0.35112265
41	0xbcd2730e	-0.025689628
42	0x3f986f31	1.1908933
43	0x3fa37b9e	1.27721
44	0x3fd55926	1.6667831
45	0x3faceaf8	1.3509207
46	0xbdfee69f	-0.12446331
47	0x3e891bf0	0.26779127
48	0x3e4a7491	0.19771029
49	0x3e89ed8a	0.2693904
50	0xbe0964f3	-0.13417415
51	0x3c8e7dd3	0.017393982
52	0xbdb01711	-0.085981496
53	0x3e57ff75	0.21093543
54	0x3e9b72d2	0.30361038
55	0xbe7f4461	-0.24928428

bias f4 [8]
0	0x4002f7ba	2.04637
1	0x3febb6bb	1.841514
2	0x3fcdd33b	1.6080087
3	0xbe10fcb0	-0.14158893
4	0x3f83b191	1.0288564
5	0x3ff77350	1.9332066
6	0x3fe7a3f7	1.8096913
7	0xbea23122	-0.3167811

weight f4 [8, 8]
0	0xbea9d293	-0.33168468
1	0x3da4a6e1	0.08039642
2	0xbe425bc1	-0.18980314
3	0xba91a015	-0.001111033
4	0xbe80c5d2	-0.25150925
5	0xbea12024	-0.31469834
6	0xbe29ac7a	-0.16569701
7	0x3eb2138e	0.34780544
8	0x3fb36fc5	1.4018484
9	0x3fddfb6c	1.7342353
10	0x3fc11f44	1.5087667
11	0x3e1d55af	0.15364717
12	0x3fce7cc3	1.6131824
13	0x3fe6a868	1.8020144
14	0x3fa7bf7f	1.3105315
15	0x3e724239	0.23658074
16	0x3d992b8c	0.07479009
17	0xbe0db47a	-0.13838378
18	0x3e0d969f	0.13826989
19	0x3e73171c	0.23739284
20	0x3d8f2b0f	0.06990635
21	0xbea6c087	-0.32568762
22	0x3e253a39	0.16135491
23	0x3d02bf2a	0.03192059
24	0x400ea29e	2.2286754
25	0x40003364	2.0031366
26	0x3fdbb992	1.7166007
27	0xbc4ec603	-0.012620452
28	0x3ff79264	1.934155
29	0x3fefdb75	1.8738848
30	0x3fefc23c	1.8731151
31	0x3e2f45bf	0.1711645
32	0x400424a9	2.0647376
33	0x4007bd8b	2.1209438
34	0x3fb6c167	1.4277772
35	0x3dfddc81	0.123955734
36	0x3feac058	1.8339949
37	0x3ff9ae99	1.9506408
38	0x3fb9b396	1.450793
39	0xbe839a42	-0.25703627
40	0x3fdd69e8	1.7297945
41	0x400c417a	2.1914964
42	0x3fce4777	1.6115559
43	0xbd021d1b	-0.03176604
44	0x3fe9e48f	1.8272876
45	0x400477f6	2.0698218
46	0x3fa7e9ed	1.3118263
47	0xbe946aa2	-0.28987604
48	0x3fda8451	1.707163
49	0x3ff8ee61	1.9447747
50	0x3f99d96f	1.201948
51	0xbdf79e82	-0.1209078
52	0x3fdd3a70	1.7283459
53	0x3fb4670f	1.4093951
54	0x3fbaf424	1.4605756
55	0xbe9ab61a	-0.30217057
56	0x400e5031	2.2236445
57	0x3ff98fad	1.9496971
58	0x3fef2978	1.868453
59	0x3d2b5318	0.04182729
60	0x3fecb261	1.8491937
61	0x3ff0a754	1.8801064
62	0x3ff03e9e	1.8769109
63	0xbdd86e2b	-0.10567888

bias f4 [8]
0	0xbe8506cf	-0.25981757
1	0x3f353a0b	0.7079169
2	0xbed3f885	-0.41400543
3	0x3f4f46d2	0.8096744
4	0x3f4cdd7b	0.8002545
5	0x3f3d0a95	0.7384427
6	0x3f477346	0.7791027
7	0x3f3ffefc	0.7499845

weight f4 [1, 8]
0	0xbdccf550	-0.10007727
1	0x3ff05df8	1.8778677
2	0xbdb99b3a	-0.0906281
3	0x4016da79	2.3570845
4	0x40025a3b	2.0367572
5	0x3ff091d2	1.8794501
6	0x3fe4af46	1.7865989
7	0x3fedc101	1.8574525
