src/model/saved_routes_part_1/weights_no_rush/t_net_a_weights.pt (torch, 8927 bytes, 5 tensors)

weight f4 [8, 7]
000000 d3 8a d5 40 2d 8a 5b 41 eb ac cc 40 5d 07 59 41
       6.6731963 13.721234 6.396108 13.564298
000010 9c ea bf be ff 93 2e 3e fd 19 b4 3e 7b 38 e1 40
       -0.3748368 0.17048644 0.35176077 7.0381446
000020 ac 50 5d 41 ea da d0 40 b6 af 59 41 ac 21 88 be
       13.832195 6.526723 13.605398 -0.2658819
000030 52 09 d2 3d e0 ec a2 3d 15 e3 d8 40 c0 6d 61 41
       0.10255684 0.079553366 6.77772 14.089294
000040 09 16 dd 40 c5 69 5d 41 bb d8 64 bd 77 e1 80 3d
       6.90894 13.838323 -0.055870753 0.06293004
000050 c6 2b c1 be 39 65 b7 be 3a d8 08 be 5b 5f 74 3d
       -0.3772871 -0.35819414 -0.13363734 0.05966125
000060 d2 da 78 3e 34 81 be be a3 41 bf 3d 0d 88 94 3d
       0.24302223 -0.3720795 0.09338691 0.07252512
000070 0f 40 cd 40 10 6f 58 41 b0 a4 d1 40 34 1f 5c 41
       6.4140697 13.527115 6.5513535 13.757618
000080 03 f7 64 be da f5 a8 3d 03 f1 c0 3e fb 80 d8 40
       -0.22359852 0.082500175 0.37683877 6.7657447
000090 67 85 5a 41 58 d5 dd 40 fc f3 5f 41 53 66 53 3e
       13.657569 6.932293 13.9970665 0.20644502
0000a0 59 c6 b3 3e 0e 73 d2 bc 67 e2 c6 40 84 5a 59 41
       0.35112265 -0.025689628 6.215137 13.584599
0000b0 4a 44 d7 40 c7 e3 58 41 9f e6 fe bd f0 1b 89 3e
       6.727086 13.55561 -0.12446331 0.26779127
0000c0 91 74 4a 3e 8a ed 89 3e f3 64 09 be d3 7d 8e 3c
       0.19771029 0.2693904 -0.13417415 0.017393982
0000d0 11 17 b0 bd 75 ff 57 3e d2 72 9b 3e 61 44 7f be
       -0.085981496 0.21093543 0.30361038 -0.24928428

bias f4 [8]
000000 10 1d e0 40 57 cf d8 40 e0 3f d5 40 b0 fc 10 be
       7.0035477 6.77531 6.6640472 -0.14158893
000010 5e b2 c0 40 90 0a dd 40 97 da db 40 22 31 a2 be
       6.0217733 6.9075394 6.8704333 -0.3167811

weight f4 [8, 8]
000000 93 d2 a9 be e1 a6 a4 3d c1 5b 42 be 15 a0 91 ba
       -0.33168468 0.08039642 -0.18980314 -0.001111033
000010 d2 c5 80 be 24 20 a1 be 7a ac 29 be 8e 13 b2 3e
       -0.25150925 -0.31469834 -0.16569701 0.34780544
000020 f1 06 d0 40 26 f3 d9 40 10 b2 d3 40 af 55 1d 3e
       6.5008473 6.810931 6.615486 0.15364717
000030 6a 12 db 40 66 c7 db 40 d8 2a cf 40 39 42 72 3e
       6.845998 6.8680906 6.47398 0.23658074
000040 8c 2b 99 3d 7a b4 0d be 9f 96 0d 3e 1c 17 73 3e
       0.07479009 -0.13838378 0.13826989 0.23739284
000050 0f 2b 8f 3d 87 c0 a6 be 39 3a 25 3e 2a bf 02 3d
       0.06990635 -0.32568762 0.16135491 0.03192059
000060 f5 8e e6 40 1e 9f de 40 dd 6b d6 40 03 c6 4e bc
       7.204951 6.9569235 6.700667 -0.012620452
000070 1a 78 e1 40 f8 23 da 40 9e 44 dd 40 bf 45 2f 3e
       7.045911 6.8168907 6.914626 0.1711645
000080 3e c9 e3 40 67 de e4 40 a3 a6 cf 40 81 dc fd 3d
       7.1183157 7.1521487 6.4890914 0.123955734
000090 65 b4 e0 40 ae 13 df 40 61 36 d2 40 42 9a 83 be
       7.022021 6.9711523 6.569138 -0.25703627
0000a0 4a 60 da 40 c3 6f e8 40 ee d6 d6 40 1b 1d 02 bd
       6.824254 7.263643 6.7137365 -0.03176604
0000b0 b5 c7 e1 40 02 34 e4 40 8b 10 cf 40 a2 6a 94 be
       7.0556283 7.1313486 6.4707694 -0.28987604
0000c0 b9 95 da 40 f9 79 e1 40 31 aa ca 40 82 9e f7 bd
       6.8307767 7.0461392 6.3332753 -0.1209078
0000d0 7b 88 df 40 61 01 d0 40 87 c0 d4 40 1a b6 9a be
       6.98541 6.5001683 6.648502 -0.30217057
0000e0 5e 4a ea 40 81 cf e0 40 e6 2b df 40 18 53 2b 3d
       7.321578 7.02533 6.9741087 0.04182729
0000f0 1b 97 e2 40 83 3e de 40 db 41 e1 40 2b 6e d8 bd
       7.0809455 6.945131 7.039289 -0.10567888

bias f4 [8]
000000 cf 06 85 be 0b f8 89 40 85 f8 d3 be eb 2d 89 40
       -0.25981757 4.3115287 -0.41400543 4.286855
000010 67 6d 8b 40 fa ce 8a 40 c9 11 8d 40 64 4d 8b 40
       4.357105 4.3377657 4.408421 4.353197

weight f4 [1, 8]
000000 50 f5 cc bd 81 65 e2 40 3a 9b b9 bd 91 2a ee 40
       -0.10007727 7.0748906 -0.0906281 7.442696
000010 01 1c e5 40 c9 4c e0 40 d0 73 df 40 19 65 de 40
       7.1596684 7.009373 6.9828873 6.949841
