src/model/saved_routes_part_1/weights_rush/t_net_a_weights.pt (torch, 8927 bytes, 5 tensors)

weight f4 [8, 7]
00000000: 52ba 1e41 8d03 7041 cf4a 1941 0f0f 6f41
00000010: 9cea bfbe ff93 2e3e fd19 b43e ef92 2441
00000020: ebc0 7141 9c63 1b41 6dae 6f41 ac21 88be
00000030: 5209 d23d e0ec a23d bf6e 2041 6707 7641
00000040: c287 2141 da90 7341 bbd8 64bd 77e1 803d
00000050: c62b c1be 3965 b7be 3ad8 08be 5b5f 743d
00000060: d2da 783e 3481 bebe a341 bf3d 0d88 943d
00000070: ad88 1a41 d6ec 6c41 a5ba 1b41 a32b 7241
00000080: 03f7 64be daf5 a83d 03f1 c03e 103b 2041
00000090: 7b05 6f41 d3e4 2141 1002 7641 5366 533e
000000a0: 59c6 b33e 0e73 d2bc e369 1741 a3f1 6d41
000000b0: 429a 1e41 a408 6f41 9fe6 febd f01b 893e
000000c0: 9174 4a3e 8aed 893e f364 09be d37d 8e3c
000000d0: 1117 b0bd 75ff 573e d272 9b3e 6144 7fbe
9.920488 15.000867 9.580764 14.941176 -0.3748368 0.17048644 0.35176077 10.285872
15.109599 9.711819 14.980084 -0.2658819 0.10255684 0.079553366 10.027038 15.376807
10.095644 15.222864 -0.055870753 0.06293004 -0.3772871 -0.35819414 -0.13363734 0.05966125
0.24302223 -0.3720795 0.09338691 0.07252512 9.658368 14.807821 9.7330675 15.1356535
-0.22359852 0.082500175 0.37683877 10.01442 14.938838 10.118365 15.375504 0.20644502
0.35112265 -0.025689628 9.463351 14.871493 9.912661 14.93961 -0.12446331 0.26779127
0.19771029 0.2693904 -0.13417415 0.017393982 -0.085981496 0.21093543 0.30361038 -0.24928428

bias f4 [8]
00000000: 8003 2341 785e 1f41 4d9d 1d41 b0fc 10be
00000010: 1142 1341 0f80 2141 03e6 2041 2231 a2be
10.1883545 9.960564 9.8509035 -0.14158893 9.2036295 10.093764 10.056155 -0.3167811

weight f4 [8, 8]
00000000: 93d2 a9be e1a6 a43d c15b 42be 15a0 91ba
00000010: d2c5 80be 2420 a1be 7aac 29be 8e13 b23e
00000020: ad8f 2141 8b34 2641 8f94 2341 af55 1d3e
00000030: edef 2741 3239 2741 2b8e 2141 3942 723e
00000040: 8c2b 993d 7ab4 0dbe 9f96 0d3e 1c17 733e
00000050: 0f2b 8f3d 87c0 a6be 393a 253e 2abf 023d
00000060: d0c7 2c41 627e 2841 c2e5 2441 03c6 4ebc
00000070: 5817 2b41 795b 2641 3c8f 2841 bf45 2f3e
00000080: 696d 2b41 b1a6 2b41 7e8b 2141 81dc fd3d
00000090: 9fbd 2a41 eedb 2841 8f10 2341 429a 83be
000000a0: 76bd 2641 ed73 2d41 fc27 2541 1b1d 02bd
000000b0: 794b 2b41 9770 2b41 f581 2141 a26a 94be
000000c0: d5d9 2641 96fa 2941 4513 1f41 829e f7bd
000000d0: 8e2d 2a41 dc58 2141 825b 2441 1ab6 9abe
000000e0: 84b3 2e41 d1a4 2941 8853 2941 1853 2b3d
000000f0: 27b4 2b41 c976 2841 969b 2a41 2b6e d8bd
-0.33168468 0.08039642 -0.18980314 -0.001111033 -0.25150925 -0.31469834 -0.16569701 0.34780544
10.097577 10.387828 10.223769 0.15364717 10.496076 10.451464 10.097209 0.23658074
0.07479009 -0.13838378 0.13826989 0.23739284 0.06990635 -0.32568762 0.16135491 0.03192059
10.798782 10.530855 10.306093 -0.012620452 10.693199 10.397332 10.534969 0.1711645
10.714211 10.728196 10.096556 0.123955734 10.671294 10.553694 10.191543 -0.25703627
10.421255 10.840802 10.322262 -0.03176604 10.705926 10.714988 10.094228 -0.28987604
10.428182 10.623678 9.942204 -0.1209078 10.636122 10.084194 10.272341 -0.30217057
10.918827 10.602738 10.582893 0.04182729 10.7314825 10.529 10.662985 -0.10567888

bias f4 [8]
00000000: cf06 85be f1d3 ef40 85f8 d3be fcdb ee40
00000010: 1d3d f140 c7b0 f040 9ef8 f240 0535 f140
-0.25981757 7.4946218 -0.41400543 7.4643536 7.53871 7.5215793 7.592849 7.537722

weight f4 [1, 8]
00000000: 50f5 ccbd b4ca 2a41 3a9b b9bd 76a5 3041
00000010: 031f 2c41 35b7 2941 7651 2941 16c1 2841
-0.10007727 10.674488 -0.0906281 11.040396 10.757571 10.607228 10.582388 10.54714
