src/model/saved_routes_part_3/no rush/weights/e_net_a_weights.pt (torch, 13286 bytes, 8 tensors)

weight f4 [8, 2]
-7.482195 -8.304699 -7.2975492 -3.7596307 -1.0679524 -0.9175103 -10.096974 -9.726305
8.801095 11.156645 -1.0909394 1.5203146 0.056619484 1.3087656 21.217754 19.400593
00000000: 246e efc0 0ce0 04c1 8685 e9c0 ca9d 70c0
00000010: aab2 88bf f4e1 6abf 358d 21c1 f29e 1bc1
00000020: 49d1 0c41 9e81 3241 e7a3 8bbf ab99 c23f
00000030: d5e9 673d a285 a73f f6bd a941 6a34 9b41

weight f4 [1, 2]
-2.6326306 2.0211713
00000000: 057d 28c0 df5a 0140

weight f4 [8, 7]
7.2901936 -0.78915554 5.776806 0.30814523 0.16378567 -17.175411 -15.190916 -0.37774196
-0.045114685 0.24562089 -0.058480266 -0.317297 0.09208747 -0.29027689 -5.3397365 4.6772866
-3.8593569 6.4666195 0.27308017 15.605779 13.709929 -4.8967314 5.1763725 -2.9626486
7.6970515 -0.15944268 15.65988 13.972308 0.18934971 -0.23707739 -0.059760917 0.061355975
-0.08622372 -0.038967572 0.19620927 -4.5160403 6.1340365 -2.6776571 7.83368 0.107588746
16.201471 14.385972 0.24823013 -0.09565246 0.31337953 0.32991058 -0.29308176 -0.14663224
-0.11896538 -0.21691737 -0.1918756 -0.34977427 0.02188453 -0.26633796 0.14389986 -0.27204052
00000000: 4449 e940 1906 4abf 98db b840 36c5 9d3e
00000010: 6eb7 273e 3e67 89c1 fe0d 73c1 6567 c1be
00000020: 2dca 38bd 0b84 7b3e 0189 6fbd c174 a2be
00000030: 5b98 bc3d 2c9f 94be 1fdf aac0 55ac 9540
00000040: b4ff 76c0 8cee ce40 2ad1 8b3e 45b1 7941
00000050: df5b 5b41 06b2 9cc0 d8a4 a540 099c 3dc0
00000060: 3f4e f640 f144 23be de8e 7a41 938e 5f41
00000070: e4e4 413e 6ac4 72be ddc7 74bd 6750 7b3d
00000080: 1096 b0bd 769c 1fbd 15eb 483e 6783 90c0
00000090: 074a c440 bc5e 2bc0 82ad fa40 7d57 dc3d
000000a0: 9d9c 8141 f12c 6641 0a30 7e3e 70e5 c3bd
000000b0: 4873 a03e 0aea a83e d00e 96be c326 16be
000000c0: 1fa4 f3bd 961f 5ebe 0a7b 44be 9d15 b3be
000000d0: 3047 b33c 735d 88be 7c5a 133e e548 8bbe

bias f4 [8]
-1.986815 -0.031786993 -1.5212995 -0.69812363 0.034166988 -0.46635735 0.20608695 0.32455942
00000000: f44f febf 1433 02bd f1b9 c2bf 3bb8 32bf
00000010: aff2 0b3d 64c6 eebe 7508 533e a72c a63e

weight f4 [8, 8]
12.295937 -0.09692451 -0.3367742 0.09084408 0.1262846 0.18267953 -0.15026443 -0.08851259
-0.22439854 0.12305253 -0.3172923 0.26520517 -0.274849 -0.023405535 0.11389642 -0.06136488
13.240007 0.13127235 -0.43325233 -0.2804837 -0.01325746 0.5950175 0.07883606 -0.32047674
-0.23315707 -0.0229584 -0.3822169 -0.09338494 0.067125596 0.20727727 0.10538031 -0.25584084
-0.06367196 -0.044670053 0.17504813 0.014998597 -0.18106695 -0.4513224 0.086876705 -0.24744006
-14.937956 -0.3099494 8.963451 9.643464 0.27196184 9.169525 0.05436425 0.27226257
-14.386786 0.29772827 10.334148 10.675392 0.25982752 10.915145 0.061696704 0.19145252
12.999863 -0.093867354 -0.18747799 0.031184169 0.0006688283 0.1028102 0.32970092 0.31788778
00000000: 28bc 4441 5c80 c6bd ab6d acbe 760c ba3d
00000010: c050 013e 5810 3b3e ebde 19be 1746 b5bd
00000020: bbc8 65be f702 fc3d 2374 a2be f9c8 873e
00000030: 02b9 8cbe f7bc bfbc 8742 e93d be59 7bbd
00000040: 12d7 5341 426c 063e 40d3 ddbe 8f9b 8fbe
00000050: d135 59bc 1153 183f cd74 a13d 8715 a4be
00000060: bac0 6ebe 4113 bcbc efb1 c3be 9a40 bfbd
00000070: 2579 893d 7e40 543e a2d1 d73d 92fd 82be
00000080: 7266 82bd f2f7 36bd d13f 333e adbc 753c
00000090: 9d69 39be bb13 e7be 6aec b13d ed60 7dbe
000000a0: de01 6fc1 b0b1 9ebe 4c6a 0f41 a14b 1a41
000000b0: 953e 8b3e 60b6 1241 0cad 5e3d 0066 8b3e
000000c0: 4730 66c1 d76f 983e ac58 2541 68ce 2a41
000000d0: 1d08 853e 6fa4 2e41 afb5 7c3d 210c 443e
000000e0: 70ff 4f41 873d c0bd 3bfa 3fbe f175 ff3c
000000f0: 4f54 2f3a 278e d23d 8fce a83e 30c2 a23e

bias f4 [8]
11.414057 0.10054729 10.58759 -0.35544953 -0.046495978 -4.250707 -0.75740546 10.032528
00000000: fa9f 3641 bdeb cd3d c566 2941 7bfd b5be
00000010: 9172 3ebd cb05 88c0 53e5 41bf 3c85 2041

weight f4 [1, 8]
11.111098 0.2601791 8.71403 0.14772351 0.04873723 -10.812399 -11.534929 11.824586
00000000: 0fc7 3141 3236 853e ab6c 0b41 d544 173e
00000010: b1a0 473d 96ff 2cc1 128f 38c1 8131 3d41

weight f4 [1, 2]
1.4809551 -13.960252
00000000: f08f bd3f 315d 5fc1
