src/model/saved_routes_part_3/no rush/weights/t_net_a_weights.pt (torch, 8927 bytes, 5 tensors)

weight f4 [8, 7]
0	0x415fdba2	13.991121
1	0xc0bb9560	-5.8619843
2	0x415eb3f9	13.918939
3	0xc0b08fc4	-5.5175495
4	0xbebfea9c	-0.3748368
5	0x410c932e	8.785933
6	0x3eb419fd	0.35176077
7	0x416596c3	14.349307
8	0xc0b80cc2	-5.7515574
9	0x4160af48	14.042793
10	0xc0af5680	-5.479309
11	0xbe8821ac	-0.2658819
12	0x410b98d4	8.724812
13	0x3da2ece0	0.079553366
14	0x416219ac	14.131268
15	0xc0af948c	-5.486883
16	0x4167797b	14.467158
17	0xc0a72f84	-5.2245502
18	0xbd64d8bb	-0.055870753
19	0x410a4180	8.640991
20	0xbec12bc6	-0.3772871
21	0xbeb76539	-0.35819414
22	0xbdfbcc1b	-0.122947894
23	0x3d745f5b	0.05966125
24	0x3e81e66f	0.2537112
25	0xbebe8134	-0.3720795
26	0x3f8f5074	1.1196427
27	0x3d94880d	0.07252512
28	0x415ba661	13.72812
29	0xc0c1e8db	-6.0596747
30	0x416120c8	14.070503
31	0xc0aa8b61	-5.329514
32	0xbe64f703	-0.22359852
33	0x410b4cf6	8.706289
34	0x3ec0f103	0.37683877
35	0x41618089	14.093881
36	0xc0bd85d3	-5.922586
37	0x416771b7	14.465262
38	0xc0a28071	-5.078179
39	0x3e536653	0.20644502
40	0x410f4561	8.954438
41	0xbcd2730e	-0.025689628
42	0x415900f4	13.562733
43	0xc0bfcecc	-5.9939938
44	0x416478b9	14.279473
45	0xc0b06038	-5.5117455
46	0xbdfee69f	-0.12446331
47	0x410da7f8	8.853508
48	0x3e4a7491	0.19771029
49	0x3e89ed8a	0.2693904
50	0xbe0964f3	-0.13417415
51	0x3c8e7dd3	0.017393982
52	0xbdb01711	-0.085981496
53	0x3e57ff75	0.21093543
54	0x3e9b72d2	0.30361038
55	0xbe7f4461	-0.24928428

bias f4 [8]
0	0x41687fb5	14.531178
1	0x4164bd40	14.296204
2	0x4163a1c2	14.226992
3	0xbe060a7a	-0.13089934
4	0x4158bb27	13.5456915
5	0x41671fe9	14.445291
6	0x4166d732	14.427538
7	0xbea23122	-0.3167811

weight f4 [8, 8]
0	0xbea9d293	-0.33168468
1	0x3da4a6e1	0.08039642
2	0xbe425bc1	-0.18980314
3	0xba91a015	-0.001111033
4	0xbe80c5d2	-0.25150925
5	0xbea12024	-0.31469834
6	0xbe29ac7a	-0.16569701
7	0x3eb2138e	0.34780544
8	0x416084b5	14.032399
9	0x416551dc	14.332485
10	0x416235e7	14.13816
11	0x3f1a64db	0.60310143
12	0x4166af3a	14.41778
13	0x416619f6	14.381338
14	0x41603db0	14.01506
15	0x3e724239	0.23658074
16	0x3d992b8c	0.07479009
17	0xbe0db47a	-0.13838378
18	0x3e0d969f	0.13826989
19	0x3e73171c	0.23739284
20	0x3d8f2b0f	0.06990635
21	0xbea6c087	-0.32568762
22	0x3e253a39	0.16135491
23	0x3d02bf2a	0.03192059
24	0x416b4397	14.704001
25	0x4167228e	14.445936
26	0x41630d8d	14.190808
27	0x3ee70570	0.45121336
28	0x41695d57	14.585288
29	0x4164c2f2	14.297594
30	0x4166c575	14.423207
31	0x3e2f45bf	0.1711645
32	0x416a4695	14.642232
33	0x416aa829	14.666055
34	0x416010a7	14.0040655
35	0x3f1384ec	0.576247
36	0x416960ec	14.586163
37	0x4167a0cf	14.47676
38	0x4161a3ee	14.102522
39	0xbe839a42	-0.25703627
40	0x4165cc6d	14.362409
41	0x416cab2d	14.791791
42	0x4163e359	14.243005
43	0x3ed41446	0.41421717
44	0x416a24e8	14.63401
45	0x416a6b4f	14.651198
46	0x41604b6d	14.0184145
47	0xbe946aa2	-0.28987604
48	0x4165f09b	14.371242
49	0x416939e2	14.576632
50	0x415dd669	13.864846
51	0x3ea635bf	0.3246288
52	0x41690ec7	14.566108
53	0x41605b87	14.022346
54	0x41632cee	14.198469
55	0xbe9ab61a	-0.30217057
56	0x416dda45	14.865788
57	0x4168f3ca	14.559519
58	0x41682684	14.509403
59	0x3ef84247	0.48488066
60	0x416aa530	14.665329
61	0x41678929	14.470986
62	0x41697cc5	14.592961
63	0xbdd86e2b	-0.10567888

bias f4 [8]
0	0xbe8506cf	-0.25981757
1	0x41305432	11.0205555
2	0xbed3f885	-0.41400543
3	0x412f8dd6	10.972128
4	0x4130f77f	11.060424
5	0x4130d2ce	11.051466
6	0x4131fbc6	11.123968
7	0x413123a4	11.071201

weight f4 [1, 8]
0	0xbdccf550	-0.10007727
1	0x416a807f	14.656371
2	0xbdb99b3a	-0.0906281
3	0x416ff994	14.998432
4	0x416b84d4	14.719929
5	0x4169116d	14.566754
6	0x4168f8e6	14.560766
7	0x4167e084	14.492313
